…
         'PRETRAIN_NAME': None,
         'QKV_BIAS': True,
         'QKV_SCALE': None,
         'SEGMENT_DIM': [32, 16, 16, 16],
         'ST_TYPE': 'st_skip',
         'TRANSITIONS': [True, False, False, False],
         'T_STRIDE': 1},
 'X3D': {'BN_LIN5': False,
         'BOTTLENECK_FACTOR': 1.0,
         'CHANNELWISE_3x3x3': True,
         'DEPTH_FACTOR': 1.0,
         'DIM_C1': 12,
         'DIM_C5': 2048,
         'SCALE_RES2': False,
         'WIDTH_FACTOR': 1.0}}
[04/18 15:56:42][INFO] misc.py: 183: Model:
DistributedDataParallel(
  (module): MViT(
    (patch_embed): PatchEmbed(
      (proj): Conv3d(3, 96, kernel_size=(3, 7, 7), stride=(2, 4, 4), padding=(1, 3, 3))
    )
    (blocks): ModuleList(
      (0): MultiScaleBlock(
        (norm1): LayerNorm((96,), eps=1e-06, elementwise_affine=True)
        (attn): MultiScaleAttention(
          (qkv): Linear(in_features=96, out_features=288, bias=True)
          (proj): Linear(in_features=96, out_features=96, bias=True)
          (pool_k): Conv3d(96, 96, kernel_size=(1, 9, 9), stride=(1, 8, 8), padding=(0, 4, 4), groups=96, bias=False)
          (norm_k): LayerNorm((96,), eps=1e-05, elementwise_affine=True)
          (pool_v): Conv3d(96, 96, kernel_size=(1, 9, 9), stride=(1, 8, 8), padding=(0, 4, 4), groups=96, bias=False)
          (norm_v): LayerNorm((96,), eps=1e-05, elementwise_affine=True)
        )
        (drop_path): Identity()
        (norm2): LayerNorm((96,), eps=1e-06, elementwise_affine=True)
        (mlp): Mlp(
          (fc1): Linear(in_features=96, out_features=384, bias=True)
          (act): GELU()
          (fc2): Linear(in_features=384, out_features=96, bias=True)
        )
      )
      (1): MultiScaleBlock(
        (norm1): LayerNorm((96,), eps=1e-06, elementwise_affine=True)
        (attn): MultiScaleAttention(
          (qkv): Linear(in_features=96, out_features=288, bias=True)
          (proj): Linear(in_features=96, out_features=96, bias=True)
          (pool_k): Conv3d(96, 96, kernel_size=(1, 9, 9), stride=(1, 8, 8), padding=(0, 4, 4), groups=96, bias=False)
          (norm_k): LayerNorm((96,), eps=1e-05, elementwise_affine=True)
          (pool_v): Conv3d(96, 96, kernel_size=(1, 9, 9), stride=(1, 8, 8), padding=(0, 4, 4), groups=96, bias=False)
          (norm_v): LayerNorm((96,), eps=1e-05, elementwise_affine=True)
        )
        (drop_path): DropPath()
        (norm2): LayerNorm((96,), eps=1e-06, elementwise_affine=True)
        (mlp): Mlp(
          (fc1): Linear(in_features=96, out_features=384, bias=True)
          (act): GELU()
          (fc2): Linear(in_features=384, out_features=192, bias=True)
        )
        (proj): Linear(in_features=96, out_features=192, bias=True)
      )
      (2): MultiScaleBlock(
        (norm1): LayerNorm((192,), eps=1e-06, elementwise_affine=True)
        (attn): MultiScaleAttention(
          (qkv): Linear(in_features=192, out_features=576, bias=True)
          (proj): Linear(in_features=192, out_features=192, bias=True)
          (pool_q): Conv3d(96, 96, kernel_size=(1, 3, 3), stride=(1, 2, 2), padding=(0, 1, 1), groups=96, bias=False)
          (norm_q): LayerNorm((96,), eps=1e-05, elementwise_affine=True)
          (pool_k): Conv3d(96, 96, kernel_size=(1, 5, 5), stride=(1, 4, 4), padding=(0, 2, 2), groups=96, bias=False)
          (norm_k): LayerNorm((96,), eps=1e-05, elementwise_affine=True)
          (pool_v): Conv3d(96, 96, kernel_size=(1, 5, 5), stride=(1, 4, 4), padding=(0, 2, 2), groups=96, bias=False)
          (norm_v): LayerNorm((96,), eps=1e-05, elementwise_affine=True)
        )
        (drop_path): DropPath()
        (norm2): LayerNorm((192,), eps=1e-06, elementwise_affine=True)
        (mlp): Mlp(
          (fc1): Linear(in_features=192, out_features=768, bias=True)
          (act): GELU()
          (fc2): Linear(in_features=768, out_features=192, bias=True)
        )
        (pool_skip): MaxPool3d(kernel_size=[1, 3, 3], stride=[1, 2, 2], padding=[0, 1, 1], dilation=1, ceil_mode=False)
      )
      (3): MultiScaleBlock(
        (norm1): LayerNorm((192,), eps=1e-06, elementwise_affine=True)
        (attn): MultiScaleAttention(
          (qkv): Linear(in_features=192, out_features=576, bias=True)
          (proj): Linear(in_features=192, out_features=192, bias=True)
          (pool_k): Conv3d(96, 96, kernel_size=(1, 5, 5), stride=(1, 4, 4), padding=(0, 2, 2), groups=96, bias=False)
          (norm_k): LayerNorm((96,), eps=1e-05, elementwise_affine=True)
          (pool_v): Conv3d(96, 96, kernel_size=(1, 5, 5), stride=(1, 4, 4), padding=(0, 2, 2), groups=96, bias=False)
          (norm_v): LayerNorm((96,), eps=1e-05, elementwise_affine=True)
        )
        (drop_path): DropPath()
        (norm2): LayerNorm((192,), eps=1e-06, elementwise_affine=True)
        (mlp): Mlp(
          (fc1): Linear(in_features=192, out_features=768, bias=True)
          (act): GELU()
          (fc2): Linear(in_features=768, out_features=192, bias=True)
        )
      )
      (4): MultiScaleBlock(
        (norm1): LayerNorm((192,), eps=1e-06, elementwise_affine=True)
        (attn): MultiScaleAttention(
          (qkv): Linear(in_features=192, out_features=576, bias=True)
          (proj): Linear(in_features=192, out_features=192, bias=True)
          (pool_k): Conv3d(96, 96, kernel_size=(1, 5, 5), stride=(1, 4, 4), padding=(0, 2, 2), groups=96, bias=False)
          (norm_k): LayerNorm((96,), eps=1e-05, elementwise_affine=True)
          (pool_v): Conv3d(96, 96, kernel_size=(1, 5, 5), stride=(1, 4, 4), padding=(0, 2, 2), groups=96, bias=False)
          (norm_v): LayerNorm((96,), eps=1e-05, elementwise_affine=True)
        )
        (drop_path): DropPath()
        (norm2): LayerNorm((192,), eps=1e-06, elementwise_affine=True)
        (mlp): Mlp(
          (fc1): Linear(in_features=192, out_features=768, bias=True)
          (act): GELU()
          (fc2): Linear(in_features=768, out_features=384, bias=True)
        )
        (proj): Linear(in_features=192, out_features=384, bias=True)
      )
      (5): MultiScaleBlock(
        (norm1): LayerNorm((384,), eps=1e-06, elementwise_affine=True)
        (attn): MultiScaleAttention(
          (qkv): Linear(in_features=384, out_features=1152, bias=True)
          (proj): Linear(in_features=384, out_features=384, bias=True)
          (pool_q): Conv3d(96, 96, kernel_size=(1, 3, 3), stride=(1, 2, 2), padding=(0, 1, 1), groups=96, bias=False)
          (norm_q): LayerNorm((96,), eps=1e-05, elementwise_affine=True)
          (pool_k): Conv3d(96, 96, kernel_size=(1, 3, 3), stride=(1, 2, 2), padding=(0, 1, 1), groups=96, bias=False)
          (norm_k): LayerNorm((96,), eps=1e-05, elementwise_affine=True)
          (pool_v): Conv3d(96, 96, kernel_size=(1, 3, 3), stride=(1, 2, 2), padding=(0, 1, 1), groups=96, bias=False)
          (norm_v): LayerNorm((96,), eps=1e-05, elementwise_affine=True)
        )
        (drop_path): DropPath()
        (norm2): LayerNorm((384,), eps=1e-06, elementwise_affine=True)
        (mlp): Mlp(
          (fc1): Linear(in_features=384, out_features=1536, bias=True)
          (act): GELU()
          (fc2): Linear(in_features=1536, out_features=384, bias=True)
        )
        (pool_skip): MaxPool3d(kernel_size=[1, 3, 3], stride=[1, 2, 2], padding=[0, 1, 1], dilation=1, ceil_mode=False)
      )
      (6): MultiScaleBlock(
        (norm1): LayerNorm((384,), eps=1e-06, elementwise_affine=True)
        (attn): MultiScaleAttention(
          (qkv): Linear(in_features=384, out_features=1152, bias=True)
          (proj): Linear(in_features=384, out_features=384, bias=True)
          (pool_k): Conv3d(96, 96, kernel_size=(1, 3, 3), stride=(1, 2, 2), padding=(0, 1, 1), groups=96, bias=False)
          (norm_k): LayerNorm((96,), eps=1e-05, elementwise_affine=True)
          (pool_v): Conv3d(96, 96, kernel_size=(1, 3, 3), stride=(1, 2, 2), padding=(0, 1, 1), groups=96, bias=False)
          (norm_v): LayerNorm((96,), eps=1e-05, elementwise_affine=True)
        )
        (drop_path): DropPath()
        (norm2): LayerNorm((384,), eps=1e-06, elementwise_affine=True)
        (mlp): Mlp(
          (fc1): Linear(in_features=384, out_features=1536, bias=True)
          (act): GELU()
          (fc2): Linear(in_features=1536, out_features=384, bias=True)
        )
      )
      (7): MultiScaleBlock(
        (norm1): LayerNorm((384,), eps=1e-06, elementwise_affine=True)
        (attn): MultiScaleAttention(
          (qkv): Linear(in_features=384, out_features=1152, bias=True)
          (proj): Linear(in_features=384, out_features=384, bias=True)
          (pool_k): Conv3d(96, 96, kernel_size=(1, 3, 3), stride=(1, 2, 2), padding=(0, 1, 1), groups=96, bias=False)
          (norm_k): LayerNorm((96,), eps=1e-05, elementwise_affine=True)
          (pool_v): Conv3d(96, 96, kernel_size=(1, 3, 3), stride=(1, 2, 2), padding=(0, 1, 1), groups=96, bias=False)
          (norm_v): LayerNorm((96,), eps=1e-05, elementwise_affine=True)
        )
        (drop_path): DropPath()
        (norm2): LayerNorm((384,), eps=1e-06, elementwise_affine=True)
        (mlp): Mlp(
          (fc1): Linear(in_features=384, out_features=1536, bias=True)
          (act): GELU()
          (fc2): Linear(in_features=1536, out_features=384, bias=True)
        )
      )
      (8): MultiScaleBlock(
        (norm1): LayerNorm((384,), eps=1e-06, elementwise_affine=True)
        (attn): MultiScaleAttention(
          (qkv): Linear(in_features=384, out_features=1152, bias=True)
          (proj): Linear(in_features=384, out_features=384, bias=True)
          (pool_k): Conv3d(96, 96, kernel_size=(1, 3, 3), stride=(1, 2, 2), padding=(0, 1, 1), groups=96, bias=False)
          (norm_k): LayerNorm((96,), eps=1e-05, elementwise_affine=True)
          (pool_v): Conv3d(96, 96, kernel_size=(1, 3, 3), stride=(1, 2, 2), padding=(0, 1, 1), groups=96, bias=False)
          (norm_v): LayerNorm((96,), eps=1e-05, elementwise_affine=True)
        )
        (drop_path): DropPath()
        (norm2): LayerNorm((384,), eps=1e-06, elementwise_affine=True)
        (mlp): Mlp(
          (fc1): Linear(in_features=384, out_features=1536, bias=True)
          (act): GELU()
          (fc2): Linear(in_features=1536, out_features=384, bias=True)
        )
      )
      (9): MultiScaleBlock(
        (norm1): LayerNorm((384,), eps=1e-06, elementwise_affine=True)
        (attn): MultiScaleAttention(
          (qkv): Linear(in_features=384, out_features=1152, bias=True)
          (proj): Linear(in_features=384, out_features=384, bias=True)
          (pool_k): Conv3d(96, 96, kernel_size=(1, 3, 3), stride=(1, 2, 2), padding=(0, 1, 1), groups=96, bias=False)
          (norm_k): LayerNorm((96,), eps=1e-05, elementwise_affine=True)
          (pool_v): Conv3d(96, 96, kernel_size=(1, 3, 3), stride=(1, 2, 2), padding=(0, 1, 1), groups=96, bias=False)
          (norm_v): LayerNorm((96,), eps=1e-05, elementwise_affine=True)
        )
        (drop_path): DropPath()
        (norm2): LayerNorm((384,), eps=1e-06, elementwise_affine=True)
        (mlp): Mlp(
          (fc1): Linear(in_features=384, out_features=1536, bias=True)
          (act): GELU()
          (fc2): Linear(in_features=1536, out_features=384, bias=True)
        )
      )
      (10): MultiScaleBlock(
        (norm1): LayerNorm((384,), eps=1e-06, elementwise_affine=True)
        (attn): MultiScaleAttention(
          (qkv): Linear(in_features=384, out_features=1152, bias=True)
          (proj): Linear(in_features=384, out_features=384, bias=True)
          (pool_k): Conv3d(96, 96, kernel_size=(1, 3, 3), stride=(1, 2, 2), padding=(0, 1, 1), groups=96, bias=False)
          (norm_k): LayerNorm((96,), eps=1e-05, elementwise_affine=True)
          (pool_v): Conv3d(96, 96, kernel_size=(1, 3, 3), stride=(1, 2, 2), padding=(0, 1, 1), groups=96, bias=False)
          (norm_v): LayerNorm((96,), eps=1e-05, elementwise_affine=True)
        )
        (drop_path): DropPath()
        (norm2): LayerNorm((384,), eps=1e-06, elementwise_affine=True)
        (mlp): Mlp(
          (fc1): Linear(in_features=384, out_features=1536, bias=True)
          (act): GELU()
          (fc2): Linear(in_features=1536, out_features=384, bias=True)
        )
      )
      (11): MultiScaleBlock(
        (norm1): LayerNorm((384,), eps=1e-06, elementwise_affine=True)
        (attn): MultiScaleAttention(
          (qkv): Linear(in_features=384, out_features=1152, bias=True)
          (proj): Linear(in_features=384, out_features=384, bias=True)
          (pool_k): Conv3d(96, 96, kernel_size=(1, 3, 3), stride=(1, 2, 2), padding=(0, 1, 1), groups=96, bias=False)
          (norm_k): LayerNorm((96,), eps=1e-05, elementwise_affine=True)
          (pool_v): Conv3d(96, 96, kernel_size=(1, 3, 3), stride=(1, 2, 2), padding=(0, 1, 1), groups=96, bias=False)
          (norm_v): LayerNorm((96,), eps=1e-05, elementwise_affine=True)
        )
        (drop_path): DropPath()
        (norm2): LayerNorm((384,), eps=1e-06, elementwise_affine=True)
        (mlp): Mlp(
          (fc1): Linear(in_features=384, out_features=1536, bias=True)
          (act): GELU()
          (fc2): Linear(in_features=1536, out_features=384, bias=True)
        )
      )
      (12): MultiScaleBlock(
        (norm1): LayerNorm((384,), eps=1e-06, elementwise_affine=True)
        (attn): MultiScaleAttention(
          (qkv): Linear(in_features=384, out_features=1152, bias=True)
          (proj): Linear(in_features=384, out_features=384, bias=True)
          (pool_k): Conv3d(96, 96, kernel_size=(1, 3, 3), stride=(1, 2, 2), padding=(0, 1, 1), groups=96, bias=False)
          (norm_k): LayerNorm((96,), eps=1e-05, elementwise_affine=True)
          (pool_v): Conv3d(96, 96, kernel_size=(1, 3, 3), stride=(1, 2, 2), padding=(0, 1, 1), groups=96, bias=False)
          (norm_v): LayerNorm((96,), eps=1e-05, elementwise_affine=True)
        )
        (drop_path): DropPath()
        (norm2): LayerNorm((384,), eps=1e-06, elementwise_affine=True)
        (mlp): Mlp(
          (fc1): Linear(in_features=384, out_features=1536, bias=True)
          (act): GELU()
          (fc2): Linear(in_features=1536, out_features=384, bias=True)
        )
      )
      (13): MultiScaleBlock(
        (norm1): LayerNorm((384,), eps=1e-06, elementwise_affine=True)
        (attn): MultiScaleAttention(
          (qkv): Linear(in_features=384, out_features=1152, bias=True)
          (proj): Linear(in_features=384, out_features=384, bias=True)
          (pool_k): Conv3d(96, 96, kernel_size=(1, 3, 3), stride=(1, 2, 2), padding=(0, 1, 1), groups=96, bias=False)
          (norm_k): LayerNorm((96,), eps=1e-05, elementwise_affine=True)
          (pool_v): Conv3d(96, 96, kernel_size=(1, 3, 3), stride=(1, 2, 2), padding=(0, 1, 1), groups=96, bias=False)
          (norm_v): LayerNorm((96,), eps=1e-05, elementwise_affine=True)
        )
        (drop_path): DropPath()
        (norm2): LayerNorm((384,), eps=1e-06, elementwise_affine=True)
        (mlp): Mlp(
          (fc1): Linear(in_features=384, out_features=1536, bias=True)
          (act): GELU()
          (fc2): Linear(in_features=1536, out_features=384, bias=True)
        )
      )
      (14): MultiScaleBlock(
        (norm1): LayerNorm((384,), eps=1e-06, elementwise_affine=True)
        (attn): MultiScaleAttention(
          (qkv): Linear(in_features=384, out_features=1152, bias=True)
          (proj): Linear(in_features=384, out_features=384, bias=True)
          (pool_k): Conv3d(96, 96, kernel_size=(1, 3, 3), stride=(1, 2, 2), padding=(0, 1, 1), groups=96, bias=False)
          (norm_k): LayerNorm((96,), eps=1e-05, elementwise_affine=True)
          (pool_v): Conv3d(96, 96, kernel_size=(1, 3, 3), stride=(1, 2, 2), padding=(0, 1, 1), groups=96, bias=False)
          (norm_v): LayerNorm((96,), eps=1e-05, elementwise_affine=True)
        )
        (drop_path): DropPath()
        (norm2): LayerNorm((384,), eps=1e-06, elementwise_affine=True)
        (mlp): Mlp(
          (fc1): Linear(in_features=384, out_features=1536, bias=True)
          (act): GELU()
          (fc2): Linear(in_features=1536, out_features=384, bias=True)
        )
      )
      (15): MultiScaleBlock(
        (norm1): LayerNorm((384,), eps=1e-06, elementwise_affine=True)
        (attn): MultiScaleAttention(
          (qkv): Linear(in_features=384, out_features=1152, bias=True)
          (proj): Linear(in_features=384, out_features=384, bias=True)
          (pool_k): Conv3d(96, 96, kernel_size=(1, 3, 3), stride=(1, 2, 2), padding=(0, 1, 1), groups=96, bias=False)
          (norm_k): LayerNorm((96,), eps=1e-05, elementwise_affine=True)
          (pool_v): Conv3d(96, 96, kernel_size=(1, 3, 3), stride=(1, 2, 2), padding=(0, 1, 1), groups=96, bias=False)
          (norm_v): LayerNorm((96,), eps=1e-05, elementwise_affine=True)
        )
        (drop_path): DropPath()
        (norm2): LayerNorm((384,), eps=1e-06, elementwise_affine=True)
        (mlp): Mlp(
          (fc1): Linear(in_features=384, out_features=1536, bias=True)
          (act): GELU()
          (fc2): Linear(in_features=1536, out_features=384, bias=True)
        )
      )
      (16): MultiScaleBlock(
        (norm1): LayerNorm((384,), eps=1e-06, elementwise_affine=True)
        (attn): MultiScaleAttention(
          (qkv): Linear(in_features=384, out_features=1152, bias=True)
          (proj): Linear(in_features=384, out_features=384, bias=True)
          (pool_k): Conv3d(96, 96, kernel_size=(1, 3, 3), stride=(1, 2, 2), padding=(0, 1, 1), groups=96, bias=False)
          (norm_k): LayerNorm((96,), eps=1e-05, elementwise_affine=True)
          (pool_v): Conv3d(96, 96, kernel_size=(1, 3, 3), stride=(1, 2, 2), padding=(0, 1, 1), groups=96, bias=False)
          (norm_v): LayerNorm((96,), eps=1e-05, elementwise_affine=True)
        )
        (drop_path): DropPath()
        (norm2): LayerNorm((384,), eps=1e-06, elementwise_affine=True)
        (mlp): Mlp(
          (fc1): Linear(in_features=384, out_features=1536, bias=True)
          (act): GELU()
          (fc2): Linear(in_features=1536, out_features=384, bias=True)
        )
      )
      (17): MultiScaleBlock(
        (norm1): LayerNorm((384,), eps=1e-06, elementwise_affine=True)
        (attn): MultiScaleAttention(
          (qkv): Linear(in_features=384, out_features=1152, bias=True)
          (proj): Linear(in_features=384, out_features=384, bias=True)
          (pool_k): Conv3d(96, 96, kernel_size=(1, 3, 3), stride=(1, 2, 2), padding=(0, 1, 1), groups=96, bias=False)
          (norm_k): LayerNorm((96,), eps=1e-05, elementwise_affine=True)
          (pool_v): Conv3d(96, 96, kernel_size=(1, 3, 3), stride=(1, 2, 2), padding=(0, 1, 1), groups=96, bias=False)
          (norm_v): LayerNorm((96,), eps=1e-05, elementwise_affine=True)
        )
        (drop_path): DropPath()
        (norm2): LayerNorm((384,), eps=1e-06, elementwise_affine=True)
        (mlp): Mlp(
          (fc1): Linear(in_features=384, out_features=1536, bias=True)
          (act): GELU()
          (fc2): Linear(in_features=1536, out_features=384, bias=True)
        )
      )
      (18): MultiScaleBlock(
        (norm1): LayerNorm((384,), eps=1e-06, elementwise_affine=True)
        (attn): MultiScaleAttention(
          (qkv): Linear(in_features=384, out_features=1152, bias=True)
          (proj): Linear(in_features=384, out_features=384, bias=True)
          (pool_k): Conv3d(96, 96, kernel_size=(1, 3, 3), stride=(1, 2, 2), padding=(0, 1, 1), groups=96, bias=False)
          (norm_k): LayerNorm((96,), eps=1e-05, elementwise_affine=True)
          (pool_v): Conv3d(96, 96, kernel_size=(1, 3, 3), stride=(1, 2, 2), padding=(0, 1, 1), groups=96, bias=False)
          (norm_v): LayerNorm((96,), eps=1e-05, elementwise_affine=True)
        )
        (drop_path): DropPath()
        (norm2): LayerNorm((384,), eps=1e-06, elementwise_affine=True)
        (mlp): Mlp(
          (fc1): Linear(in_features=384, out_features=1536, bias=True)
          (act): GELU()
          (fc2): Linear(in_features=1536, out_features=384, bias=True)
        )
      )
      (19): MultiScaleBlock(
        (norm1): LayerNorm((384,), eps=1e-06, elementwise_affine=True)
        (attn): MultiScaleAttention(
          (qkv): Linear(in_features=384, out_features=1152, bias=True)
          (proj): Linear(in_features=384, out_features=384, bias=True)
          (pool_k): Conv3d(96, 96, kernel_size=(1, 3, 3), stride=(1, 2, 2), padding=(0, 1, 1), groups=96, bias=False)
          (norm_k): LayerNorm((96,), eps=1e-05, elementwise_affine=True)
          (pool_v): Conv3d(96, 96, kernel_size=(1, 3, 3), stride=(1, 2, 2), padding=(0, 1, 1), groups=96, bias=False)
          (norm_v): LayerNorm((96,), eps=1e-05, elementwise_affine=True)
        )
        (drop_path): DropPath()
        (norm2): LayerNorm((384,), eps=1e-06, elementwise_affine=True)
        (mlp): Mlp(
          (fc1): Linear(in_features=384, out_features=1536, bias=True)
          (act): GELU()
          (fc2): Linear(in_features=1536, out_features=384, bias=True)
        )
      )
      (20): MultiScaleBlock(
        (norm1): LayerNorm((384,), eps=1e-06, elementwise_affine=True)
        (attn): MultiScaleAttention(
          (qkv): Linear(in_features=384, out_features=1152, bias=True)
          (proj): Linear(in_features=384, out_features=384, bias=True)
          (pool_k): Conv3d(96, 96, kernel_size=(1, 3, 3), stride=(1, 2, 2), padding=(0, 1, 1), groups=96, bias=False)
          (norm_k): LayerNorm((96,), eps=1e-05, elementwise_affine=True)
          (pool_v): Conv3d(96, 96, kernel_size=(1, 3, 3), stride=(1, 2, 2), padding=(0, 1, 1), groups=96, bias=False)
          (norm_v): LayerNorm((96,), eps=1e-05, elementwise_affine=True)
        )
        (drop_path): DropPath()
        (norm2): LayerNorm((384,), eps=1e-06, elementwise_affine=True)
        (mlp): Mlp(
          (fc1): Linear(in_features=384, out_features=1536, bias=True)
          (act): GELU()
          (fc2): Linear(in_features=1536, out_features=768, bias=True)
        )
        (proj): Linear(in_features=384, out_features=768, bias=True)
      )
      (21): MultiScaleBlock(
        (norm1): LayerNorm((768,), eps=1e-06, elementwise_affine=True)
        (attn): MultiScaleAttention(
          (qkv): Linear(in_features=768, out_features=2304, bias=True)
          (proj): Linear(in_features=768, out_features=768, bias=True)
          (pool_q): Conv3d(96, 96, kernel_size=(1, 3, 3), stride=(1, 2, 2), padding=(0, 1, 1), groups=96, bias=False)
          (norm_q): LayerNorm((96,), eps=1e-05, elementwise_affine=True)
        )
        (drop_path): DropPath()
        (norm2): LayerNorm((768,), eps=1e-06, elementwise_affine=True)
        (mlp): Mlp(
          (fc1): Linear(in_features=768, out_features=3072, bias=True)
          (act): GELU()
          (fc2): Linear(in_features=3072, out_features=768, bias=True)
        )
        (pool_skip): MaxPool3d(kernel_size=[1, 3, 3], stride=[1, 2, 2], padding=[0, 1, 1], dilation=1, ceil_mode=False)
      )
      (22): MultiScaleBlock(
        (norm1): LayerNorm((768,), eps=1e-06, elementwise_affine=True)
        (attn): MultiScaleAttention(
          (qkv): Linear(in_features=768, out_features=2304, bias=True)
          (proj): Linear(in_features=768, out_features=768, bias=True)
        )
        (drop_path): DropPath()
        (norm2): LayerNorm((768,), eps=1e-06, elementwise_affine=True)
        (mlp): Mlp(
          (fc1): Linear(in_features=768, out_features=3072, bias=True)
          (act): GELU()
          (fc2): Linear(in_features=3072, out_features=768, bias=True)
        )
      )
      (23): MultiScaleBlock(
        (norm1): LayerNorm((768,), eps=1e-06, elementwise_affine=True)
        (attn): MultiScaleAttention(
          (qkv): Linear(in_features=768, out_features=2304, bias=True)
          (proj): Linear(in_features=768, out_features=768, bias=True)
        )
        (drop_path): DropPath()
        (norm2): LayerNorm((768,), eps=1e-06, elementwise_affine=True)
        (mlp): Mlp(
          (fc1): Linear(in_features=768, out_features=3072, bias=True)
          (act): GELU()
          (fc2): Linear(in_features=3072, out_features=768, bias=True)
        )
      )
    )
    (norm): LayerNorm((768,), eps=1e-06, elementwise_affine=True)
    (head): TransformerBasicHead(
      (dropout): Dropout(p=0.5, inplace=False)
      (projection): Linear(in_features=768, out_features=11, bias=True)
      (act): Softmax(dim=1)
    )
  )
)
[04/18 15:56:42][INFO] misc.py: 184: Params: 52,816,139
[04/18 15:56:42][INFO] misc.py: 185: Mem: 0.39524316787719727 MB
[04/18 15:56:48][WARNING] jit_analysis.py: 500: Unsupported operator aten::repeat encountered 1 time(s)
[04/18 15:56:48][WARNING] jit_analysis.py: 500: Unsupported operator aten::repeat_interleave encountered 1 time(s)
…
