…
         'QKV_BIAS': True,
         'QKV_SCALE': None,
         'SEGMENT_DIM': [32, 16, 16, 16],
         'ST_TYPE': 'st_skip',
         'TRANSITIONS': [True, False, False, False],
         'T_STRIDE': 1},
 'X3D': {'BN_LIN5': False,
         'BOTTLENECK_FACTOR': 1.0,
         'CHANNELWISE_3x3x3': True,
         'DEPTH_FACTOR': 1.0,
         'DIM_C1': 12,
         'DIM_C5': 2048,
         'SCALE_RES2': False,
         'WIDTH_FACTOR': 1.0}}
[04/18 04:20:20][INFO] build.py:  46: load pretrained model...
[04/18 04:20:26][INFO] misc.py: 183: Model:
DistributedDataParallel(
  (module): SF(
    (slow): SlowPath(
      (conv1): Conv3d(3, 64, kernel_size=(1, 7, 7), stride=(1, 2, 2), padding=(0, 3, 3), bias=False)
      (bn1): BatchNorm3d(64, eps=1e-05, momentum=0.1, affine=True, track_running_stats=True)
      (relu): ReLU(inplace=True)
      (maxpool1): MaxPool3d(kernel_size=(1, 3, 3), stride=(1, 2, 2), padding=0, dilation=1, ceil_mode=False)
      (res_nl1): ResNLBlock(
        (res_0): ResBlock(
          (btnk): Bottleneck(
            (conv1): Conv3dBN(
              (conv): Conv3d(80, 64, kernel_size=(1, 1, 1), stride=(1, 1, 1), bias=False)
              (bn): BatchNorm3d(64, eps=1e-05, momentum=0.1, affine=True, track_running_stats=True)
            )
            (conv2): Conv3dBN(
              (conv): Conv3d(64, 64, kernel_size=(1, 3, 3), stride=(1, 1, 1), padding=(0, 1, 1), bias=False)
              (bn): BatchNorm3d(64, eps=1e-05, momentum=0.1, affine=True, track_running_stats=True)
            )
            (conv3): Conv3dBN(
              (conv): Conv3d(64, 256, kernel_size=(1, 1, 1), stride=(1, 1, 1), bias=False)
              (bn): BatchNorm3d(256, eps=1e-05, momentum=0.1, affine=True, track_running_stats=True)
            )
            (relu): ReLU(inplace=True)
          )
          (shortcut): Conv3dBN(
            (conv): Conv3d(80, 256, kernel_size=(1, 1, 1), stride=(1, 1, 1), bias=False)
            (bn): BatchNorm3d(256, eps=1e-05, momentum=0.1, affine=True, track_running_stats=True)
          )
          (relu): ReLU(inplace=True)
        )
        (res_1): ResBlock(
          (btnk): Bottleneck(
            (conv1): Conv3dBN(
              (conv): Conv3d(256, 64, kernel_size=(1, 1, 1), stride=(1, 1, 1), bias=False)
              (bn): BatchNorm3d(64, eps=1e-05, momentum=0.1, affine=True, track_running_stats=True)
            )
            (conv2): Conv3dBN(
              (conv): Conv3d(64, 64, kernel_size=(1, 3, 3), stride=(1, 1, 1), padding=(0, 1, 1), bias=False)
              (bn): BatchNorm3d(64, eps=1e-05, momentum=0.1, affine=True, track_running_stats=True)
            )
            (conv3): Conv3dBN(
              (conv): Conv3d(64, 256, kernel_size=(1, 1, 1), stride=(1, 1, 1), bias=False)
              (bn): BatchNorm3d(256, eps=1e-05, momentum=0.1, affine=True, track_running_stats=True)
            )
            (relu): ReLU(inplace=True)
          )
          (relu): ReLU(inplace=True)
        )
        (res_2): ResBlock(
          (btnk): Bottleneck(
            (conv1): Conv3dBN(
              (conv): Conv3d(256, 64, kernel_size=(1, 1, 1), stride=(1, 1, 1), bias=False)
              (bn): BatchNorm3d(64, eps=1e-05, momentum=0.1, affine=True, track_running_stats=True)
            )
            (conv2): Conv3dBN(
              (conv): Conv3d(64, 64, kernel_size=(1, 3, 3), stride=(1, 1, 1), padding=(0, 1, 1), bias=False)
              (bn): BatchNorm3d(64, eps=1e-05, momentum=0.1, affine=True, track_running_stats=True)
            )
            (conv3): Conv3dBN(
              (conv): Conv3d(64, 256, kernel_size=(1, 1, 1), stride=(1, 1, 1), bias=False)
              (bn): BatchNorm3d(256, eps=1e-05, momentum=0.1, affine=True, track_running_stats=True)
            )
            (relu): ReLU(inplace=True)
          )
          (relu): ReLU(inplace=True)
        )
      )
      (res_nl2): ResNLBlock(
        (res_0): ResBlock(
          (btnk): Bottleneck(
            (conv1): Conv3dBN(
              (conv): Conv3d(320, 128, kernel_size=(1, 1, 1), stride=(1, 1, 1), bias=False)
              (bn): BatchNorm3d(128, eps=1e-05, momentum=0.1, affine=True, track_running_stats=True)
            )
            (conv2): Conv3dBN(
              (conv): Conv3d(128, 128, kernel_size=(1, 3, 3), stride=(1, 2, 2), padding=(0, 1, 1), bias=False)
              (bn): BatchNorm3d(128, eps=1e-05, momentum=0.1, affine=True, track_running_stats=True)
            )
            (conv3): Conv3dBN(
              (conv): Conv3d(128, 512, kernel_size=(1, 1, 1), stride=(1, 1, 1), bias=False)
              (bn): BatchNorm3d(512, eps=1e-05, momentum=0.1, affine=True, track_running_stats=True)
            )
            (relu): ReLU(inplace=True)
          )
          (shortcut): Conv3dBN(
            (conv): Conv3d(320, 512, kernel_size=(1, 1, 1), stride=(1, 2, 2), bias=False)
            (bn): BatchNorm3d(512, eps=1e-05, momentum=0.1, affine=True, track_running_stats=True)
          )
          (relu): ReLU(inplace=True)
        )
        (res_1): ResBlock(
          (btnk): Bottleneck(
            (conv1): Conv3dBN(
              (conv): Conv3d(512, 128, kernel_size=(1, 1, 1), stride=(1, 1, 1), bias=False)
              (bn): BatchNorm3d(128, eps=1e-05, momentum=0.1, affine=True, track_running_stats=True)
            )
            (conv2): Conv3dBN(
              (conv): Conv3d(128, 128, kernel_size=(1, 3, 3), stride=(1, 1, 1), padding=(0, 1, 1), bias=False)
              (bn): BatchNorm3d(128, eps=1e-05, momentum=0.1, affine=True, track_running_stats=True)
            )
            (conv3): Conv3dBN(
              (conv): Conv3d(128, 512, kernel_size=(1, 1, 1), stride=(1, 1, 1), bias=False)
              (bn): BatchNorm3d(512, eps=1e-05, momentum=0.1, affine=True, track_running_stats=True)
            )
            (relu): ReLU(inplace=True)
          )
          (relu): ReLU(inplace=True)
        )
        (res_2): ResBlock(
          (btnk): Bottleneck(
            (conv1): Conv3dBN(
              (conv): Conv3d(512, 128, kernel_size=(1, 1, 1), stride=(1, 1, 1), bias=False)
              (bn): BatchNorm3d(128, eps=1e-05, momentum=0.1, affine=True, track_running_stats=True)
            )
            (conv2): Conv3dBN(
              (conv): Conv3d(128, 128, kernel_size=(1, 3, 3), stride=(1, 1, 1), padding=(0, 1, 1), bias=False)
              (bn): BatchNorm3d(128, eps=1e-05, momentum=0.1, affine=True, track_running_stats=True)
            )
            (conv3): Conv3dBN(
              (conv): Conv3d(128, 512, kernel_size=(1, 1, 1), stride=(1, 1, 1), bias=False)
              (bn): BatchNorm3d(512, eps=1e-05, momentum=0.1, affine=True, track_running_stats=True)
            )
            (relu): ReLU(inplace=True)
          )
          (relu): ReLU(inplace=True)
        )
        (res_3): ResBlock(
          (btnk): Bottleneck(
            (conv1): Conv3dBN(
              (conv): Conv3d(512, 128, kernel_size=(1, 1, 1), stride=(1, 1, 1), bias=False)
              (bn): BatchNorm3d(128, eps=1e-05, momentum=0.1, affine=True, track_running_stats=True)
            )
            (conv2): Conv3dBN(
              (conv): Conv3d(128, 128, kernel_size=(1, 3, 3), stride=(1, 1, 1), padding=(0, 1, 1), bias=False)
              (bn): BatchNorm3d(128, eps=1e-05, momentum=0.1, affine=True, track_running_stats=True)
            )
            (conv3): Conv3dBN(
              (conv): Conv3d(128, 512, kernel_size=(1, 1, 1), stride=(1, 1, 1), bias=False)
              (bn): BatchNorm3d(512, eps=1e-05, momentum=0.1, affine=True, track_running_stats=True)
            )
            (relu): ReLU(inplace=True)
          )
          (relu): ReLU(inplace=True)
        )
      )
      (res_nl3): ResNLBlock(
        (res_0): ResBlock(
          (btnk): Bottleneck(
            (conv1): Conv3dBN(
              (conv): Conv3d(640, 256, kernel_size=(3, 1, 1), stride=(1, 1, 1), padding=(1, 0, 0), bias=False)
              (bn): BatchNorm3d(256, eps=1e-05, momentum=0.1, affine=True, track_running_stats=True)
            )
            (conv2): Conv3dBN(
              (conv): Conv3d(256, 256, kernel_size=(1, 3, 3), stride=(1, 2, 2), padding=(0, 1, 1), bias=False)
              (bn): BatchNorm3d(256, eps=1e-05, momentum=0.1, affine=True, track_running_stats=True)
            )
            (conv3): Conv3dBN(
              (conv): Conv3d(256, 1024, kernel_size=(1, 1, 1), stride=(1, 1, 1), bias=False)
              (bn): BatchNorm3d(1024, eps=1e-05, momentum=0.1, affine=True, track_running_stats=True)
            )
            (relu): ReLU(inplace=True)
          )
          (shortcut): Conv3dBN(
            (conv): Conv3d(640, 1024, kernel_size=(1, 1, 1), stride=(1, 2, 2), bias=False)
            (bn): BatchNorm3d(1024, eps=1e-05, momentum=0.1, affine=True, track_running_stats=True)
          )
          (relu): ReLU(inplace=True)
        )
        (res_1): ResBlock(
          (btnk): Bottleneck(
            (conv1): Conv3dBN(
              (conv): Conv3d(1024, 256, kernel_size=(3, 1, 1), stride=(1, 1, 1), padding=(1, 0, 0), bias=False)
              (bn): BatchNorm3d(256, eps=1e-05, momentum=0.1, affine=True, track_running_stats=True)
            )
            (conv2): Conv3dBN(
              (conv): Conv3d(256, 256, kernel_size=(1, 3, 3), stride=(1, 1, 1), padding=(0, 1, 1), bias=False)
              (bn): BatchNorm3d(256, eps=1e-05, momentum=0.1, affine=True, track_running_stats=True)
            )
            (conv3): Conv3dBN(
              (conv): Conv3d(256, 1024, kernel_size=(1, 1, 1), stride=(1, 1, 1), bias=False)
              (bn): BatchNorm3d(1024, eps=1e-05, momentum=0.1, affine=True, track_running_stats=True)
            )
            (relu): ReLU(inplace=True)
          )
          (relu): ReLU(inplace=True)
        )
        (res_2): ResBlock(
          (btnk): Bottleneck(
            (conv1): Conv3dBN(
              (conv): Conv3d(1024, 256, kernel_size=(3, 1, 1), stride=(1, 1, 1), padding=(1, 0, 0), bias=False)
              (bn): BatchNorm3d(256, eps=1e-05, momentum=0.1, affine=True, track_running_stats=True)
            )
            (conv2): Conv3dBN(
              (conv): Conv3d(256, 256, kernel_size=(1, 3, 3), stride=(1, 1, 1), padding=(0, 1, 1), bias=False)
              (bn): BatchNorm3d(256, eps=1e-05, momentum=0.1, affine=True, track_running_stats=True)
            )
            (conv3): Conv3dBN(
              (conv): Conv3d(256, 1024, kernel_size=(1, 1, 1), stride=(1, 1, 1), bias=False)
              (bn): BatchNorm3d(1024, eps=1e-05, momentum=0.1, affine=True, track_running_stats=True)
            )
            (relu): ReLU(inplace=True)
          )
          (relu): ReLU(inplace=True)
        )
        (res_3): ResBlock(
          (btnk): Bottleneck(
            (conv1): Conv3dBN(
              (conv): Conv3d(1024, 256, kernel_size=(3, 1, 1), stride=(1, 1, 1), padding=(1, 0, 0), bias=False)
              (bn): BatchNorm3d(256, eps=1e-05, momentum=0.1, affine=True, track_running_stats=True)
            )
            (conv2): Conv3dBN(
              (conv): Conv3d(256, 256, kernel_size=(1, 3, 3), stride=(1, 1, 1), padding=(0, 1, 1), bias=False)
              (bn): BatchNorm3d(256, eps=1e-05, momentum=0.1, affine=True, track_running_stats=True)
            )
            (conv3): Conv3dBN(
              (conv): Conv3d(256, 1024, kernel_size=(1, 1, 1), stride=(1, 1, 1), bias=False)
              (bn): BatchNorm3d(1024, eps=1e-05, momentum=0.1, affine=True, track_running_stats=True)
            )
            (relu): ReLU(inplace=True)
          )
          (relu): ReLU(inplace=True)
        )
        (res_4): ResBlock(
          (btnk): Bottleneck(
            (conv1): Conv3dBN(
              (conv): Conv3d(1024, 256, kernel_size=(3, 1, 1), stride=(1, 1, 1), padding=(1, 0, 0), bias=False)
              (bn): BatchNorm3d(256, eps=1e-05, momentum=0.1, affine=True, track_running_stats=True)
            )
            (conv2): Conv3dBN(
              (conv): Conv3d(256, 256, kernel_size=(1, 3, 3), stride=(1, 1, 1), padding=(0, 1, 1), bias=False)
              (bn): BatchNorm3d(256, eps=1e-05, momentum=0.1, affine=True, track_running_stats=True)
            )
            (conv3): Conv3dBN(
              (conv): Conv3d(256, 1024, kernel_size=(1, 1, 1), stride=(1, 1, 1), bias=False)
              (bn): BatchNorm3d(1024, eps=1e-05, momentum=0.1, affine=True, track_running_stats=True)
            )
            (relu): ReLU(inplace=True)
          )
          (relu): ReLU(inplace=True)
        )
        (res_5): ResBlock(
          (btnk): Bottleneck(
            (conv1): Conv3dBN(
              (conv): Conv3d(1024, 256, kernel_size=(3, 1, 1), stride=(1, 1, 1), padding=(1, 0, 0), bias=False)
              (bn): BatchNorm3d(256, eps=1e-05, momentum=0.1, affine=True, track_running_stats=True)
            )
            (conv2): Conv3dBN(
              (conv): Conv3d(256, 256, kernel_size=(1, 3, 3), stride=(1, 1, 1), padding=(0, 1, 1), bias=False)
              (bn): BatchNorm3d(256, eps=1e-05, momentum=0.1, affine=True, track_running_stats=True)
            )
            (conv3): Conv3dBN(
              (conv): Conv3d(256, 1024, kernel_size=(1, 1, 1), stride=(1, 1, 1), bias=False)
              (bn): BatchNorm3d(1024, eps=1e-05, momentum=0.1, affine=True, track_running_stats=True)
            )
            (relu): ReLU(inplace=True)
          )
          (relu): ReLU(inplace=True)
        )
        (res_6): ResBlock(
          (btnk): Bottleneck(
            (conv1): Conv3dBN(
              (conv): Conv3d(1024, 256, kernel_size=(3, 1, 1), stride=(1, 1, 1), padding=(1, 0, 0), bias=False)
              (bn): BatchNorm3d(256, eps=1e-05, momentum=0.1, affine=True, track_running_stats=True)
            )
            (conv2): Conv3dBN(
              (conv): Conv3d(256, 256, kernel_size=(1, 3, 3), stride=(1, 1, 1), padding=(0, 1, 1), bias=False)
              (bn): BatchNorm3d(256, eps=1e-05, momentum=0.1, affine=True, track_running_stats=True)
            )
            (conv3): Conv3dBN(
              (conv): Conv3d(256, 1024, kernel_size=(1, 1, 1), stride=(1, 1, 1), bias=False)
              (bn): BatchNorm3d(1024, eps=1e-05, momentum=0.1, affine=True, track_running_stats=True)
            )
            (relu): ReLU(inplace=True)
          )
          (relu): ReLU(inplace=True)
        )
        (res_7): ResBlock(
          (btnk): Bottleneck(
            (conv1): Conv3dBN(
              (conv): Conv3d(1024, 256, kernel_size=(3, 1, 1), stride=(1, 1, 1), padding=(1, 0, 0), bias=False)
              (bn): BatchNorm3d(256, eps=1e-05, momentum=0.1, affine=True, track_running_stats=True)
            )
            (conv2): Conv3dBN(
              (conv): Conv3d(256, 256, kernel_size=(1, 3, 3), stride=(1, 1, 1), padding=(0, 1, 1), bias=False)
              (bn): BatchNorm3d(256, eps=1e-05, momentum=0.1, affine=True, track_running_stats=True)
            )
            (conv3): Conv3dBN(
              (conv): Conv3d(256, 1024, kernel_size=(1, 1, 1), stride=(1, 1, 1), bias=False)
              (bn): BatchNorm3d(1024, eps=1e-05, momentum=0.1, affine=True, track_running_stats=True)
            )
            (relu): ReLU(inplace=True)
          )
          (relu): ReLU(inplace=True)
        )
        (res_8): ResBlock(
          (btnk): Bottleneck(
            (conv1): Conv3dBN(
              (conv): Conv3d(1024, 256, kernel_size=(3, 1, 1), stride=(1, 1, 1), padding=(1, 0, 0), bias=False)
              (bn): BatchNorm3d(256, eps=1e-05, momentum=0.1, affine=True, track_running_stats=True)
            )
            (conv2): Conv3dBN(
              (conv): Conv3d(256, 256, kernel_size=(1, 3, 3), stride=(1, 1, 1), padding=(0, 1, 1), bias=False)
              (bn): BatchNorm3d(256, eps=1e-05, momentum=0.1, affine=True, track_running_stats=True)
            )
            (conv3): Conv3dBN(
              (conv): Conv3d(256, 1024, kernel_size=(1, 1, 1), stride=(1, 1, 1), bias=False)
              (bn): BatchNorm3d(1024, eps=1e-05, momentum=0.1, affine=True, track_running_stats=True)
            )
            (relu): ReLU(inplace=True)
          )
          (relu): ReLU(inplace=True)
        )
        (res_9): ResBlock(
          (btnk): Bottleneck(
            (conv1): Conv3dBN(
              (conv): Conv3d(1024, 256, kernel_size=(3, 1, 1), stride=(1, 1, 1), padding=(1, 0, 0), bias=False)
              (bn): BatchNorm3d(256, eps=1e-05, momentum=0.1, affine=True, track_running_stats=True)
            )
            (conv2): Conv3dBN(
              (conv): Conv3d(256, 256, kernel_size=(1, 3, 3), stride=(1, 1, 1), padding=(0, 1, 1), bias=False)
              (bn): BatchNorm3d(256, eps=1e-05, momentum=0.1, affine=True, track_running_stats=True)
            )
            (conv3): Conv3dBN(
              (conv): Conv3d(256, 1024, kernel_size=(1, 1, 1), stride=(1, 1, 1), bias=False)
              (bn): BatchNorm3d(1024, eps=1e-05, momentum=0.1, affine=True, track_running_stats=True)
            )
            (relu): ReLU(inplace=True)
          )
          (relu): ReLU(inplace=True)
        )
        (res_10): ResBlock(
          (btnk): Bottleneck(
            (conv1): Conv3dBN(
              (conv): Conv3d(1024, 256, kernel_size=(3, 1, 1), stride=(1, 1, 1), padding=(1, 0, 0), bias=False)
              (bn): BatchNorm3d(256, eps=1e-05, momentum=0.1, affine=True, track_running_stats=True)
            )
            (conv2): Conv3dBN(
              (conv): Conv3d(256, 256, kernel_size=(1, 3, 3), stride=(1, 1, 1), padding=(0, 1, 1), bias=False)
              (bn): BatchNorm3d(256, eps=1e-05, momentum=0.1, affine=True, track_running_stats=True)
            )
            (conv3): Conv3dBN(
              (conv): Conv3d(256, 1024, kernel_size=(1, 1, 1), stride=(1, 1, 1), bias=False)
              (bn): BatchNorm3d(1024, eps=1e-05, momentum=0.1, affine=True, track_running_stats=True)
            )
            (relu): ReLU(inplace=True)
          )
          (relu): ReLU(inplace=True)
        )
        (res_11): ResBlock(
          (btnk): Bottleneck(
            (conv1): Conv3dBN(
              (conv): Conv3d(1024, 256, kernel_size=(3, 1, 1), stride=(1, 1, 1), padding=(1, 0, 0), bias=False)
              (bn): BatchNorm3d(256, eps=1e-05, momentum=0.1, affine=True, track_running_stats=True)
            )
            (conv2): Conv3dBN(
              (conv): Conv3d(256, 256, kernel_size=(1, 3, 3), stride=(1, 1, 1), padding=(0, 1, 1), bias=False)
              (bn): BatchNorm3d(256, eps=1e-05, momentum=0.1, affine=True, track_running_stats=True)
            )
            (conv3): Conv3dBN(
              (conv): Conv3d(256, 1024, kernel_size=(1, 1, 1), stride=(1, 1, 1), bias=False)
              (bn): BatchNorm3d(1024, eps=1e-05, momentum=0.1, affine=True, track_running_stats=True)
            )
            (relu): ReLU(inplace=True)
          )
          (relu): ReLU(inplace=True)
        )
        (res_12): ResBlock(
          (btnk): Bottleneck(
            (conv1): Conv3dBN(
              (conv): Conv3d(1024, 256, kernel_size=(3, 1, 1), stride=(1, 1, 1), padding=(1, 0, 0), bias=False)
              (bn): BatchNorm3d(256, eps=1e-05, momentum=0.1, affine=True, track_running_stats=True)
            )
            (conv2): Conv3dBN(
              (conv): Conv3d(256, 256, kernel_size=(1, 3, 3), stride=(1, 1, 1), padding=(0, 1, 1), bias=False)
              (bn): BatchNorm3d(256, eps=1e-05, momentum=0.1, affine=True, track_running_stats=True)
            )
            (conv3): Conv3dBN(
              (conv): Conv3d(256, 1024, kernel_size=(1, 1, 1), stride=(1, 1, 1), bias=False)
              (bn): BatchNorm3d(1024, eps=1e-05, momentum=0.1, affine=True, track_running_stats=True)
            )
            (relu): ReLU(inplace=True)
          )
          (relu): ReLU(inplace=True)
        )
        (res_13): ResBlock(
          (btnk): Bottleneck(
            (conv1): Conv3dBN(
              (conv): Conv3d(1024, 256, kernel_size=(3, 1, 1), stride=(1, 1, 1), padding=(1, 0, 0), bias=False)
              (bn): BatchNorm3d(256, eps=1e-05, momentum=0.1, affine=True, track_running_stats=True)
            )
            (conv2): Conv3dBN(
              (conv): Conv3d(256, 256, kernel_size=(1, 3, 3), stride=(1, 1, 1), padding=(0, 1, 1), bias=False)
              (bn): BatchNorm3d(256, eps=1e-05, momentum=0.1, affine=True, track_running_stats=True)
            )
            (conv3): Conv3dBN(
              (conv): Conv3d(256, 1024, kernel_size=(1, 1, 1), stride=(1, 1, 1), bias=False)
              (bn): BatchNorm3d(1024, eps=1e-05, momentum=0.1, affine=True, track_running_stats=True)
            )
            (relu): ReLU(inplace=True)
          )
          (relu): ReLU(inplace=True)
        )
        (res_14): ResBlock(
          (btnk): Bottleneck(
            (conv1): Conv3dBN(
              (conv): Conv3d(1024, 256, kernel_size=(3, 1, 1), stride=(1, 1, 1), padding=(1, 0, 0), bias=False)
              (bn): BatchNorm3d(256, eps=1e-05, momentum=0.1, affine=True, track_running_stats=True)
            )
            (conv2): Conv3dBN(
              (conv): Conv3d(256, 256, kernel_size=(1, 3, 3), stride=(1, 1, 1), padding=(0, 1, 1), bias=False)
              (bn): BatchNorm3d(256, eps=1e-05, momentum=0.1, affine=True, track_running_stats=True)
            )
            (conv3): Conv3dBN(
              (conv): Conv3d(256, 1024, kernel_size=(1, 1, 1), stride=(1, 1, 1), bias=False)
              (bn): BatchNorm3d(1024, eps=1e-05, momentum=0.1, affine=True, track_running_stats=True)
            )
            (relu): ReLU(inplace=True)
          )
          (relu): ReLU(inplace=True)
        )
        (res_15): ResBlock(
          (btnk): Bottleneck(
            (conv1): Conv3dBN(
              (conv): Conv3d(1024, 256, kernel_size=(3, 1, 1), stride=(1, 1, 1), padding=(1, 0, 0), bias=False)
              (bn): BatchNorm3d(256, eps=1e-05, momentum=0.1, affine=True, track_running_stats=True)
            )
            (conv2): Conv3dBN(
              (conv): Conv3d(256, 256, kernel_size=(1, 3, 3), stride=(1, 1, 1), padding=(0, 1, 1), bias=False)
              (bn): BatchNorm3d(256, eps=1e-05, momentum=0.1, affine=True, track_running_stats=True)
            )
            (conv3): Conv3dBN(
              (conv): Conv3d(256, 1024, kernel_size=(1, 1, 1), stride=(1, 1, 1), bias=False)
              (bn): BatchNorm3d(1024, eps=1e-05, momentum=0.1, affine=True, track_running_stats=True)
            )
            (relu): ReLU(inplace=True)
          )
          (relu): ReLU(inplace=True)
        )
        (res_16): ResBlock(
          (btnk): Bottleneck(
            (conv1): Conv3dBN(
              (conv): Conv3d(1024, 256, kernel_size=(3, 1, 1), stride=(1, 1, 1), padding=(1, 0, 0), bias=False)
              (bn): BatchNorm3d(256, eps=1e-05, momentum=0.1, affine=True, track_running_stats=True)
            )
            (conv2): Conv3dBN(
              (conv): Conv3d(256, 256, kernel_size=(1, 3, 3), stride=(1, 1, 1), padding=(0, 1, 1), bias=False)
              (bn): BatchNorm3d(256, eps=1e-05, momentum=0.1, affine=True, track_running_stats=True)
            )
            (conv3): Conv3dBN(
              (conv): Conv3d(256, 1024, kernel_size=(1, 1, 1), stride=(1, 1, 1), bias=False)
              (bn): BatchNorm3d(1024, eps=1e-05, momentum=0.1, affine=True, track_running_stats=True)
            )
            (relu): ReLU(inplace=True)
          )
          (relu): ReLU(inplace=True)
        )
        (res_17): ResBlock(
          (btnk): Bottleneck(
            (conv1): Conv3dBN(
              (conv): Conv3d(1024, 256, kernel_size=(3, 1, 1), stride=(1, 1, 1), padding=(1, 0, 0), bias=False)
              (bn): BatchNorm3d(256, eps=1e-05, momentum=0.1, affine=True, track_running_stats=True)
            )
            (conv2): Conv3dBN(
              (conv): Conv3d(256, 256, kernel_size=(1, 3, 3), stride=(1, 1, 1), padding=(0, 1, 1), bias=False)
              (bn): BatchNorm3d(256, eps=1e-05, momentum=0.1, affine=True, track_running_stats=True)
            )
            (conv3): Conv3dBN(
              (conv): Conv3d(256, 1024, kernel_size=(1, 1, 1), stride=(1, 1, 1), bias=False)
              (bn): BatchNorm3d(1024, eps=1e-05, momentum=0.1, affine=True, track_running_stats=True)
            )
            (relu): ReLU(inplace=True)
          )
          (relu): ReLU(inplace=True)
        )
        (res_18): ResBlock(
          (btnk): Bottleneck(
            (conv1): Conv3dBN(
              (conv): Conv3d(1024, 256, kernel_size=(3, 1, 1), stride=(1, 1, 1), padding=(1, 0, 0), bias=False)
              (bn): BatchNorm3d(256, eps=1e-05, momentum=0.1, affine=True, track_running_stats=True)
            )
            (conv2): Conv3dBN(
              (conv): Conv3d(256, 256, kernel_size=(1, 3, 3), stride=(1, 1, 1), padding=(0, 1, 1), bias=False)
              (bn): BatchNorm3d(256, eps=1e-05, momentum=0.1, affine=True, track_running_stats=True)
            )
            (conv3): Conv3dBN(
              (conv): Conv3d(256, 1024, kernel_size=(1, 1, 1), stride=(1, 1, 1), bias=False)
              (bn): BatchNorm3d(1024, eps=1e-05, momentum=0.1, affine=True, track_running_stats=True)
            )
            (relu): ReLU(inplace=True)
          )
          (relu): ReLU(inplace=True)
        )
        (res_19): ResBlock(
          (btnk): Bottleneck(
            (conv1): Conv3dBN(
              (conv): Conv3d(1024, 256, kernel_size=(3, 1, 1), stride=(1, 1, 1), padding=(1, 0, 0), bias=False)
              (bn): BatchNorm3d(256, eps=1e-05, momentum=0.1, affine=True, track_running_stats=True)
            )
            (conv2): Conv3dBN(
              (conv): Conv3d(256, 256, kernel_size=(1, 3, 3), stride=(1, 1, 1), padding=(0, 1, 1), bias=False)
              (bn): BatchNorm3d(256, eps=1e-05, momentum=0.1, affine=True, track_running_stats=True)
            )
            (conv3): Conv3dBN(
              (conv): Conv3d(256, 1024, kernel_size=(1, 1, 1), stride=(1, 1, 1), bias=False)
              (bn): BatchNorm3d(1024, eps=1e-05, momentum=0.1, affine=True, track_running_stats=True)
            )
            (relu): ReLU(inplace=True)
          )
          (relu): ReLU(inplace=True)
        )
        (res_20): ResBlock(
          (btnk): Bottleneck(
            (conv1): Conv3dBN(
              (conv): Conv3d(1024, 256, kernel_size=(3, 1, 1), stride=(1, 1, 1), padding=(1, 0, 0), bias=False)
              (bn): BatchNorm3d(256, eps=1e-05, momentum=0.1, affine=True, track_running_stats=True)
            )
            (conv2): Conv3dBN(
              (conv): Conv3d(256, 256, kernel_size=(1, 3, 3), stride=(1, 1, 1), padding=(0, 1, 1), bias=False)
              (bn): BatchNorm3d(256, eps=1e-05, momentum=0.1, affine=True, track_running_stats=True)
            )
            (conv3): Conv3dBN(
              (conv): Conv3d(256, 1024, kernel_size=(1, 1, 1), stride=(1, 1, 1), bias=False)
              (bn): BatchNorm3d(1024, eps=1e-05, momentum=0.1, affine=True, track_running_stats=True)
            )
            (relu): ReLU(inplace=True)
          )
          (relu): ReLU(inplace=True)
        )
        (res_21): ResBlock(
          (btnk): Bottleneck(
            (conv1): Conv3dBN(
              (conv): Conv3d(1024, 256, kernel_size=(3, 1, 1), stride=(1, 1, 1), padding=(1, 0, 0), bias=False)
              (bn): BatchNorm3d(256, eps=1e-05, momentum=0.1, affine=True, track_running_stats=True)
            )
            (conv2): Conv3dBN(
              (conv): Conv3d(256, 256, kernel_size=(1, 3, 3), stride=(1, 1, 1), padding=(0, 1, 1), bias=False)
              (bn): BatchNorm3d(256, eps=1e-05, momentum=0.1, affine=True, track_running_stats=True)
            )
            (conv3): Conv3dBN(
              (conv): Conv3d(256, 1024, kernel_size=(1, 1, 1), stride=(1, 1, 1), bias=False)
              (bn): BatchNorm3d(1024, eps=1e-05, momentum=0.1, affine=True, track_running_stats=True)
            )
            (relu): ReLU(inplace=True)
          )
          (relu): ReLU(inplace=True)
        )
        (res_22): ResBlock(
          (btnk): Bottleneck(
            (conv1): Conv3dBN(
              (conv): Conv3d(1024, 256, kernel_size=(3, 1, 1), stride=(1, 1, 1), padding=(1, 0, 0), bias=False)
              (bn): BatchNorm3d(256, eps=1e-05, momentum=0.1, affine=True, track_running_stats=True)
            )
            (conv2): Conv3dBN(
              (conv): Conv3d(256, 256, kernel_size=(1, 3, 3), stride=(1, 1, 1), padding=(0, 1, 1), bias=False)
              (bn): BatchNorm3d(256, eps=1e-05, momentum=0.1, affine=True, track_running_stats=True)
            )
            (conv3): Conv3dBN(
              (conv): Conv3d(256, 1024, kernel_size=(1, 1, 1), stride=(1, 1, 1), bias=False)
              (bn): BatchNorm3d(1024, eps=1e-05, momentum=0.1, affine=True, track_running_stats=True)
            )
            (relu): ReLU(inplace=True)
          )
          (relu): ReLU(inplace=True)
        )
      )
      (res_nl4): ResNLBlock(
        (res_0): ResBlock(
          (btnk): Bottleneck(
            (conv1): Conv3dBN(
              (conv): Conv3d(1280, 512, kernel_size=(3, 1, 1), stride=(1, 1, 1), padding=(1, 0, 0), bias=False)
              (bn): BatchNorm3d(512, eps=1e-05, momentum=0.1, affine=True, track_running_stats=True)
            )
            (conv2): Conv3dBN(
              (conv): Conv3d(512, 512, kernel_size=(1, 3, 3), stride=(1, 1, 1), padding=(0, 2, 2), dilation=(1, 2, 2), bias=False)
              (bn): BatchNorm3d(512, eps=1e-05, momentum=0.1, affine=True, track_running_stats=True)
            )
            (conv3): Conv3dBN(
              (conv): Conv3d(512, 2048, kernel_size=(1, 1, 1), stride=(1, 1, 1), bias=False)
              (bn): BatchNorm3d(2048, eps=1e-05, momentum=0.1, affine=True, track_running_stats=True)
            )
            (relu): ReLU(inplace=True)
          )
          (shortcut): Conv3dBN(
            (conv): Conv3d(1280, 2048, kernel_size=(1, 1, 1), stride=(1, 1, 1), bias=False)
            (bn): BatchNorm3d(2048, eps=1e-05, momentum=0.1, affine=True, track_running_stats=True)
          )
          (relu): ReLU(inplace=True)
        )
        (res_1): ResBlock(
          (btnk): Bottleneck(
            (conv1): Conv3dBN(
              (conv): Conv3d(2048, 512, kernel_size=(3, 1, 1), stride=(1, 1, 1), padding=(1, 0, 0), bias=False)
              (bn): BatchNorm3d(512, eps=1e-05, momentum=0.1, affine=True, track_running_stats=True)
            )
            (conv2): Conv3dBN(
              (conv): Conv3d(512, 512, kernel_size=(1, 3, 3), stride=(1, 1, 1), padding=(0, 2, 2), dilation=(1, 2, 2), bias=False)
              (bn): BatchNorm3d(512, eps=1e-05, momentum=0.1, affine=True, track_running_stats=True)
            )
            (conv3): Conv3dBN(
              (conv): Conv3d(512, 2048, kernel_size=(1, 1, 1), stride=(1, 1, 1), bias=False)
              (bn): BatchNorm3d(2048, eps=1e-05, momentum=0.1, affine=True, track_running_stats=True)
            )
            (relu): ReLU(inplace=True)
          )
          (relu): ReLU(inplace=True)
        )
        (res_2): ResBlock(
          (btnk): Bottleneck(
            (conv1): Conv3dBN(
              (conv): Conv3d(2048, 512, kernel_size=(3, 1, 1), stride=(1, 1, 1), padding=(1, 0, 0), bias=False)
              (bn): BatchNorm3d(512, eps=1e-05, momentum=0.1, affine=True, track_running_stats=True)
            )
            (conv2): Conv3dBN(
              (conv): Conv3d(512, 512, kernel_size=(1, 3, 3), stride=(1, 1, 1), padding=(0, 2, 2), dilation=(1, 2, 2), bias=False)
              (bn): BatchNorm3d(512, eps=1e-05, momentum=0.1, affine=True, track_running_stats=True)
            )
            (conv3): Conv3dBN(
              (conv): Conv3d(512, 2048, kernel_size=(1, 1, 1), stride=(1, 1, 1), bias=False)
              (bn): BatchNorm3d(2048, eps=1e-05, momentum=0.1, affine=True, track_running_stats=True)
            )
            (relu): ReLU(inplace=True)
          )
          (relu): ReLU(inplace=True)
        )
      )
    )
    (fast): FastPath(
      (conv1): Conv3d(3, 8, kernel_size=(5, 7, 7), stride=(1, 2, 2), padding=(2, 3, 3), bias=False)
      (bn1): BatchNorm3d(8, eps=1e-05, momentum=0.1, affine=True, track_running_stats=True)
      (relu): ReLU(inplace=True)
      (maxpool1): MaxPool3d(kernel_size=(1, 3, 3), stride=(1, 2, 2), padding=0, dilation=1, ceil_mode=False)
      (res_nl1): ResNLBlock(
        (res_0): ResBlock(
          (btnk): Bottleneck(
            (conv1): Conv3dBN(
              (conv): Conv3d(8, 8, kernel_size=(3, 1, 1), stride=(1, 1, 1), padding=(1, 0, 0), bias=False)
              (bn): BatchNorm3d(8, eps=1e-05, momentum=0.1, affine=True, track_running_stats=True)
            )
            (conv2): Conv3dBN(
              (conv): Conv3d(8, 8, kernel_size=(1, 3, 3), stride=(1, 1, 1), padding=(0, 1, 1), bias=False)
              (bn): BatchNorm3d(8, eps=1e-05, momentum=0.1, affine=True, track_running_stats=True)
            )
            (conv3): Conv3dBN(
              (conv): Conv3d(8, 32, kernel_size=(1, 1, 1), stride=(1, 1, 1), bias=False)
              (bn): BatchNorm3d(32, eps=1e-05, momentum=0.1, affine=True, track_running_stats=True)
            )
            (relu): ReLU(inplace=True)
          )
          (shortcut): Conv3dBN(
            (conv): Conv3d(8, 32, kernel_size=(1, 1, 1), stride=(1, 1, 1), bias=False)
            (bn): BatchNorm3d(32, eps=1e-05, momentum=0.1, affine=True, track_running_stats=True)
          )
          (relu): ReLU(inplace=True)
        )
        (res_1): ResBlock(
          (btnk): Bottleneck(
            (conv1): Conv3dBN(
              (conv): Conv3d(32, 8, kernel_size=(3, 1, 1), stride=(1, 1, 1), padding=(1, 0, 0), bias=False)
              (bn): BatchNorm3d(8, eps=1e-05, momentum=0.1, affine=True, track_running_stats=True)
            )
            (conv2): Conv3dBN(
              (conv): Conv3d(8, 8, kernel_size=(1, 3, 3), stride=(1, 1, 1), padding=(0, 1, 1), bias=False)
              (bn): BatchNorm3d(8, eps=1e-05, momentum=0.1, affine=True, track_running_stats=True)
            )
            (conv3): Conv3dBN(
              (conv): Conv3d(8, 32, kernel_size=(1, 1, 1), stride=(1, 1, 1), bias=False)
              (bn): BatchNorm3d(32, eps=1e-05, momentum=0.1, affine=True, track_running_stats=True)
            )
            (relu): ReLU(inplace=True)
          )
          (relu): ReLU(inplace=True)
        )
        (res_2): ResBlock(
          (btnk): Bottleneck(
            (conv1): Conv3dBN(
              (conv): Conv3d(32, 8, kernel_size=(3, 1, 1), stride=(1, 1, 1), padding=(1, 0, 0), bias=False)
              (bn): BatchNorm3d(8, eps=1e-05, momentum=0.1, affine=True, track_running_stats=True)
            )
            (conv2): Conv3dBN(
              (conv): Conv3d(8, 8, kernel_size=(1, 3, 3), stride=(1, 1, 1), padding=(0, 1, 1), bias=False)
              (bn): BatchNorm3d(8, eps=1e-05, momentum=0.1, affine=True, track_running_stats=True)
            )
            (conv3): Conv3dBN(
              (conv): Conv3d(8, 32, kernel_size=(1, 1, 1), stride=(1, 1, 1), bias=False)
              (bn): BatchNorm3d(32, eps=1e-05, momentum=0.1, affine=True, track_running_stats=True)
            )
            (relu): ReLU(inplace=True)
          )
          (relu): ReLU(inplace=True)
        )
      )
      (res_nl2): ResNLBlock(
        (res_0): ResBlock(
          (btnk): Bottleneck(
            (conv1): Conv3dBN(
              (conv): Conv3d(32, 16, kernel_size=(3, 1, 1), stride=(1, 1, 1), padding=(1, 0, 0), bias=False)
              (bn): BatchNorm3d(16, eps=1e-05, momentum=0.1, affine=True, track_running_stats=True)
            )
            (conv2): Conv3dBN(
              (conv): Conv3d(16, 16, kernel_size=(1, 3, 3), stride=(1, 2, 2), padding=(0, 1, 1), bias=False)
              (bn): BatchNorm3d(16, eps=1e-05, momentum=0.1, affine=True, track_running_stats=True)
            )
            (conv3): Conv3dBN(
              (conv): Conv3d(16, 64, kernel_size=(1, 1, 1), stride=(1, 1, 1), bias=False)
              (bn): BatchNorm3d(64, eps=1e-05, momentum=0.1, affine=True, track_running_stats=True)
            )
            (relu): ReLU(inplace=True)
          )
          (shortcut): Conv3dBN(
            (conv): Conv3d(32, 64, kernel_size=(1, 1, 1), stride=(1, 2, 2), bias=False)
            (bn): BatchNorm3d(64, eps=1e-05, momentum=0.1, affine=True, track_running_stats=True)
          )
          (relu): ReLU(inplace=True)
        )
        (res_1): ResBlock(
          (btnk): Bottleneck(
            (conv1): Conv3dBN(
              (conv): Conv3d(64, 16, kernel_size=(3, 1, 1), stride=(1, 1, 1), padding=(1, 0, 0), bias=False)
              (bn): BatchNorm3d(16, eps=1e-05, momentum=0.1, affine=True, track_running_stats=True)
            )
            (conv2): Conv3dBN(
              (conv): Conv3d(16, 16, kernel_size=(1, 3, 3), stride=(1, 1, 1), padding=(0, 1, 1), bias=False)
              (bn): BatchNorm3d(16, eps=1e-05, momentum=0.1, affine=True, track_running_stats=True)
            )
            (conv3): Conv3dBN(
              (conv): Conv3d(16, 64, kernel_size=(1, 1, 1), stride=(1, 1, 1), bias=False)
              (bn): BatchNorm3d(64, eps=1e-05, momentum=0.1, affine=True, track_running_stats=True)
            )
            (relu): ReLU(inplace=True)
          )
          (relu): ReLU(inplace=True)
        )
        (res_2): ResBlock(
          (btnk): Bottleneck(
            (conv1): Conv3dBN(
              (conv): Conv3d(64, 16, kernel_size=(3, 1, 1), stride=(1, 1, 1), padding=(1, 0, 0), bias=False)
              (bn): BatchNorm3d(16, eps=1e-05, momentum=0.1, affine=True, track_running_stats=True)
            )
            (conv2): Conv3dBN(
              (conv): Conv3d(16, 16, kernel_size=(1, 3, 3), stride=(1, 1, 1), padding=(0, 1, 1), bias=False)
              (bn): BatchNorm3d(16, eps=1e-05, momentum=0.1, affine=True, track_running_stats=True)
            )
            (conv3): Conv3dBN(
              (conv): Conv3d(16, 64, kernel_size=(1, 1, 1), stride=(1, 1, 1), bias=False)
              (bn): BatchNorm3d(64, eps=1e-05, momentum=0.1, affine=True, track_running_stats=True)
            )
            (relu): ReLU(inplace=True)
          )
          (relu): ReLU(inplace=True)
        )
        (res_3): ResBlock(
          (btnk): Bottleneck(
            (conv1): Conv3dBN(
              (conv): Conv3d(64, 16, kernel_size=(3, 1, 1), stride=(1, 1, 1), padding=(1, 0, 0), bias=False)
              (bn): BatchNorm3d(16, eps=1e-05, momentum=0.1, affine=True, track_running_stats=True)
            )
            (conv2): Conv3dBN(
              (conv): Conv3d(16, 16, kernel_size=(1, 3, 3), stride=(1, 1, 1), padding=(0, 1, 1), bias=False)
              (bn): BatchNorm3d(16, eps=1e-05, momentum=0.1, affine=True, track_running_stats=True)
            )
            (conv3): Conv3dBN(
              (conv): Conv3d(16, 64, kernel_size=(1, 1, 1), stride=(1, 1, 1), bias=False)
              (bn): BatchNorm3d(64, eps=1e-05, momentum=0.1, affine=True, track_running_stats=True)
            )
            (relu): ReLU(inplace=True)
          )
          (relu): ReLU(inplace=True)
        )
      )
      (res_nl3): ResNLBlock(
        (res_0): ResBlock(
          (btnk): Bottleneck(
            (conv1): Conv3dBN(
              (conv): Conv3d(64, 32, kernel_size=(3, 1, 1), stride=(1, 1, 1), padding=(1, 0, 0), bias=False)
              (bn): BatchNorm3d(32, eps=1e-05, momentum=0.1, affine=True, track_running_stats=True)
            )
            (conv2): Conv3dBN(
              (conv): Conv3d(32, 32, kernel_size=(1, 3, 3), stride=(1, 2, 2), padding=(0, 1, 1), bias=False)
              (bn): BatchNorm3d(32, eps=1e-05, momentum=0.1, affine=True, track_running_stats=True)
            )
            (conv3): Conv3dBN(
              (conv): Conv3d(32, 128, kernel_size=(1, 1, 1), stride=(1, 1, 1), bias=False)
              (bn): BatchNorm3d(128, eps=1e-05, momentum=0.1, affine=True, track_running_stats=True)
            )
            (relu): ReLU(inplace=True)
          )
          (shortcut): Conv3dBN(
            (conv): Conv3d(64, 128, kernel_size=(1, 1, 1), stride=(1, 2, 2), bias=False)
            (bn): BatchNorm3d(128, eps=1e-05, momentum=0.1, affine=True, track_running_stats=True)
          )
          (relu): ReLU(inplace=True)
        )
        (res_1): ResBlock(
          (btnk): Bottleneck(
            (conv1): Conv3dBN(
              (conv): Conv3d(128, 32, kernel_size=(3, 1, 1), stride=(1, 1, 1), padding=(1, 0, 0), bias=False)
              (bn): BatchNorm3d(32, eps=1e-05, momentum=0.1, affine=True, track_running_stats=True)
            )
            (conv2): Conv3dBN(
              (conv): Conv3d(32, 32, kernel_size=(1, 3, 3), stride=(1, 1, 1), padding=(0, 1, 1), bias=False)
              (bn): BatchNorm3d(32, eps=1e-05, momentum=0.1, affine=True, track_running_stats=True)
            )
            (conv3): Conv3dBN(
              (conv): Conv3d(32, 128, kernel_size=(1, 1, 1), stride=(1, 1, 1), bias=False)
              (bn): BatchNorm3d(128, eps=1e-05, momentum=0.1, affine=True, track_running_stats=True)
            )
            (relu): ReLU(inplace=True)
          )
          (relu): ReLU(inplace=True)
        )
        (res_2): ResBlock(
          (btnk): Bottleneck(
            (conv1): Conv3dBN(
              (conv): Conv3d(128, 32, kernel_size=(3, 1, 1), stride=(1, 1, 1), padding=(1, 0, 0), bias=False)
              (bn): BatchNorm3d(32, eps=1e-05, momentum=0.1, affine=True, track_running_stats=True)
            )
            (conv2): Conv3dBN(
              (conv): Conv3d(32, 32, kernel_size=(1, 3, 3), stride=(1, 1, 1), padding=(0, 1, 1), bias=False)
              (bn): BatchNorm3d(32, eps=1e-05, momentum=0.1, affine=True, track_running_stats=True)
            )
            (conv3): Conv3dBN(
              (conv): Conv3d(32, 128, kernel_size=(1, 1, 1), stride=(1, 1, 1), bias=False)
              (bn): BatchNorm3d(128, eps=1e-05, momentum=0.1, affine=True, track_running_stats=True)
            )
            (relu): ReLU(inplace=True)
          )
          (relu): ReLU(inplace=True)
        )
        (res_3): ResBlock(
          (btnk): Bottleneck(
            (conv1): Conv3dBN(
              (conv): Conv3d(128, 32, kernel_size=(3, 1, 1), stride=(1, 1, 1), padding=(1, 0, 0), bias=False)
              (bn): BatchNorm3d(32, eps=1e-05, momentum=0.1, affine=True, track_running_stats=True)
            )
            (conv2): Conv3dBN(
              (conv): Conv3d(32, 32, kernel_size=(1, 3, 3), stride=(1, 1, 1), padding=(0, 1, 1), bias=False)
              (bn): BatchNorm3d(32, eps=1e-05, momentum=0.1, affine=True, track_running_stats=True)
            )
            (conv3): Conv3dBN(
              (conv): Conv3d(32, 128, kernel_size=(1, 1, 1), stride=(1, 1, 1), bias=False)
              (bn): BatchNorm3d(128, eps=1e-05, momentum=0.1, affine=True, track_running_stats=True)
            )
            (relu): ReLU(inplace=True)
          )
          (relu): ReLU(inplace=True)
        )
        (res_4): ResBlock(
          (btnk): Bottleneck(
            (conv1): Conv3dBN(
              (conv): Conv3d(128, 32, kernel_size=(3, 1, 1), stride=(1, 1, 1), padding=(1, 0, 0), bias=False)
              (bn): BatchNorm3d(32, eps=1e-05, momentum=0.1, affine=True, track_running_stats=True)
            )
            (conv2): Conv3dBN(
              (conv): Conv3d(32, 32, kernel_size=(1, 3, 3), stride=(1, 1, 1), padding=(0, 1, 1), bias=False)
              (bn): BatchNorm3d(32, eps=1e-05, momentum=0.1, affine=True, track_running_stats=True)
            )
            (conv3): Conv3dBN(
              (conv): Conv3d(32, 128, kernel_size=(1, 1, 1), stride=(1, 1, 1), bias=False)
              (bn): BatchNorm3d(128, eps=1e-05, momentum=0.1, affine=True, track_running_stats=True)
            )
            (relu): ReLU(inplace=True)
          )
          (relu): ReLU(inplace=True)
        )
        (res_5): ResBlock(
          (btnk): Bottleneck(
            (conv1): Conv3dBN(
              (conv): Conv3d(128, 32, kernel_size=(3, 1, 1), stride=(1, 1, 1), padding=(1, 0, 0), bias=False)
              (bn): BatchNorm3d(32, eps=1e-05, momentum=0.1, affine=True, track_running_stats=True)
            )
            (conv2): Conv3dBN(
              (conv): Conv3d(32, 32, kernel_size=(1, 3, 3), stride=(1, 1, 1), padding=(0, 1, 1), bias=False)
              (bn): BatchNorm3d(32, eps=1e-05, momentum=0.1, affine=True, track_running_stats=True)
            )
            (conv3): Conv3dBN(
              (conv): Conv3d(32, 128, kernel_size=(1, 1, 1), stride=(1, 1, 1), bias=False)
              (bn): BatchNorm3d(128, eps=1e-05, momentum=0.1, affine=True, track_running_stats=True)
            )
            (relu): ReLU(inplace=True)
          )
          (relu): ReLU(inplace=True)
        )
        (res_6): ResBlock(
          (btnk): Bottleneck(
            (conv1): Conv3dBN(
              (conv): Conv3d(128, 32, kernel_size=(3, 1, 1), stride=(1, 1, 1), padding=(1, 0, 0), bias=False)
              (bn): BatchNorm3d(32, eps=1e-05, momentum=0.1, affine=True, track_running_stats=True)
            )
            (conv2): Conv3dBN(
              (conv): Conv3d(32, 32, kernel_size=(1, 3, 3), stride=(1, 1, 1), padding=(0, 1, 1), bias=False)
              (bn): BatchNorm3d(32, eps=1e-05, momentum=0.1, affine=True, track_running_stats=True)
            )
            (conv3): Conv3dBN(
              (conv): Conv3d(32, 128, kernel_size=(1, 1, 1), stride=(1, 1, 1), bias=False)
              (bn): BatchNorm3d(128, eps=1e-05, momentum=0.1, affine=True, track_running_stats=True)
            )
            (relu): ReLU(inplace=True)
          )
          (relu): ReLU(inplace=True)
        )
        (res_7): ResBlock(
          (btnk): Bottleneck(
            (conv1): Conv3dBN(
              (conv): Conv3d(128, 32, kernel_size=(3, 1, 1), stride=(1, 1, 1), padding=(1, 0, 0), bias=False)
              (bn): BatchNorm3d(32, eps=1e-05, momentum=0.1, affine=True, track_running_stats=True)
            )
            (conv2): Conv3dBN(
              (conv): Conv3d(32, 32, kernel_size=(1, 3, 3), stride=(1, 1, 1), padding=(0, 1, 1), bias=False)
              (bn): BatchNorm3d(32, eps=1e-05, momentum=0.1, affine=True, track_running_stats=True)
            )
            (conv3): Conv3dBN(
              (conv): Conv3d(32, 128, kernel_size=(1, 1, 1), stride=(1, 1, 1), bias=False)
              (bn): BatchNorm3d(128, eps=1e-05, momentum=0.1, affine=True, track_running_stats=True)
            )
            (relu): ReLU(inplace=True)
          )
          (relu): ReLU(inplace=True)
        )
        (res_8): ResBlock(
          (btnk): Bottleneck(
            (conv1): Conv3dBN(
              (conv): Conv3d(128, 32, kernel_size=(3, 1, 1), stride=(1, 1, 1), padding=(1, 0, 0), bias=False)
              (bn): BatchNorm3d(32, eps=1e-05, momentum=0.1, affine=True, track_running_stats=True)
            )
            (conv2): Conv3dBN(
              (conv): Conv3d(32, 32, kernel_size=(1, 3, 3), stride=(1, 1, 1), padding=(0, 1, 1), bias=False)
              (bn): BatchNorm3d(32, eps=1e-05, momentum=0.1, affine=True, track_running_stats=True)
            )
            (conv3): Conv3dBN(
              (conv): Conv3d(32, 128, kernel_size=(1, 1, 1), stride=(1, 1, 1), bias=False)
              (bn): BatchNorm3d(128, eps=1e-05, momentum=0.1, affine=True, track_running_stats=True)
            )
            (relu): ReLU(inplace=True)
          )
          (relu): ReLU(inplace=True)
        )
        (res_9): ResBlock(
          (btnk): Bottleneck(
            (conv1): Conv3dBN(
              (conv): Conv3d(128, 32, kernel_size=(3, 1, 1), stride=(1, 1, 1), padding=(1, 0, 0), bias=False)
              (bn): BatchNorm3d(32, eps=1e-05, momentum=0.1, affine=True, track_running_stats=True)
            )
            (conv2): Conv3dBN(
              (conv): Conv3d(32, 32, kernel_size=(1, 3, 3), stride=(1, 1, 1), padding=(0, 1, 1), bias=False)
              (bn): BatchNorm3d(32, eps=1e-05, momentum=0.1, affine=True, track_running_stats=True)
            )
            (conv3): Conv3dBN(
              (conv): Conv3d(32, 128, kernel_size=(1, 1, 1), stride=(1, 1, 1), bias=False)
              (bn): BatchNorm3d(128, eps=1e-05, momentum=0.1, affine=True, track_running_stats=True)
            )
            (relu): ReLU(inplace=True)
          )
          (relu): ReLU(inplace=True)
        )
        (res_10): ResBlock(
          (btnk): Bottleneck(
            (conv1): Conv3dBN(
              (conv): Conv3d(128, 32, kernel_size=(3, 1, 1), stride=(1, 1, 1), padding=(1, 0, 0), bias=False)
              (bn): BatchNorm3d(32, eps=1e-05, momentum=0.1, affine=True, track_running_stats=True)
            )
            (conv2): Conv3dBN(
              (conv): Conv3d(32, 32, kernel_size=(1, 3, 3), stride=(1, 1, 1), padding=(0, 1, 1), bias=False)
              (bn): BatchNorm3d(32, eps=1e-05, momentum=0.1, affine=True, track_running_stats=True)
            )
            (conv3): Conv3dBN(
              (conv): Conv3d(32, 128, kernel_size=(1, 1, 1), stride=(1, 1, 1), bias=False)
              (bn): BatchNorm3d(128, eps=1e-05, momentum=0.1, affine=True, track_running_stats=True)
            )
            (relu): ReLU(inplace=True)
          )
          (relu): ReLU(inplace=True)
        )
        (res_11): ResBlock(
          (btnk): Bottleneck(
            (conv1): Conv3dBN(
              (conv): Conv3d(128, 32, kernel_size=(3, 1, 1), stride=(1, 1, 1), padding=(1, 0, 0), bias=False)
              (bn): BatchNorm3d(32, eps=1e-05, momentum=0.1, affine=True, track_running_stats=True)
            )
            (conv2): Conv3dBN(
              (conv): Conv3d(32, 32, kernel_size=(1, 3, 3), stride=(1, 1, 1), padding=(0, 1, 1), bias=False)
              (bn): BatchNorm3d(32, eps=1e-05, momentum=0.1, affine=True, track_running_stats=True)
            )
            (conv3): Conv3dBN(
              (conv): Conv3d(32, 128, kernel_size=(1, 1, 1), stride=(1, 1, 1), bias=False)
              (bn): BatchNorm3d(128, eps=1e-05, momentum=0.1, affine=True, track_running_stats=True)
            )
            (relu): ReLU(inplace=True)
          )
          (relu): ReLU(inplace=True)
        )
        (res_12): ResBlock(
          (btnk): Bottleneck(
            (conv1): Conv3dBN(
              (conv): Conv3d(128, 32, kernel_size=(3, 1, 1), stride=(1, 1, 1), padding=(1, 0, 0), bias=False)
              (bn): BatchNorm3d(32, eps=1e-05, momentum=0.1, affine=True, track_running_stats=True)
            )
            (conv2): Conv3dBN(
              (conv): Conv3d(32, 32, kernel_size=(1, 3, 3), stride=(1, 1, 1), padding=(0, 1, 1), bias=False)
              (bn): BatchNorm3d(32, eps=1e-05, momentum=0.1, affine=True, track_running_stats=True)
            )
            (conv3): Conv3dBN(
              (conv): Conv3d(32, 128, kernel_size=(1, 1, 1), stride=(1, 1, 1), bias=False)
              (bn): BatchNorm3d(128, eps=1e-05, momentum=0.1, affine=True, track_running_stats=True)
            )
            (relu): ReLU(inplace=True)
          )
          (relu): ReLU(inplace=True)
        )
        (res_13): ResBlock(
          (btnk): Bottleneck(
            (conv1): Conv3dBN(
              (conv): Conv3d(128, 32, kernel_size=(3, 1, 1), stride=(1, 1, 1), padding=(1, 0, 0), bias=False)
              (bn): BatchNorm3d(32, eps=1e-05, momentum=0.1, affine=True, track_running_stats=True)
            )
            (conv2): Conv3dBN(
              (conv): Conv3d(32, 32, kernel_size=(1, 3, 3), stride=(1, 1, 1), padding=(0, 1, 1), bias=False)
              (bn): BatchNorm3d(32, eps=1e-05, momentum=0.1, affine=True, track_running_stats=True)
            )
            (conv3): Conv3dBN(
              (conv): Conv3d(32, 128, kernel_size=(1, 1, 1), stride=(1, 1, 1), bias=False)
              (bn): BatchNorm3d(128, eps=1e-05, momentum=0.1, affine=True, track_running_stats=True)
            )
            (relu): ReLU(inplace=True)
          )
          (relu): ReLU(inplace=True)
        )
        (res_14): ResBlock(
          (btnk): Bottleneck(
            (conv1): Conv3dBN(
              (conv): Conv3d(128, 32, kernel_size=(3, 1, 1), stride=(1, 1, 1), padding=(1, 0, 0), bias=False)
              (bn): BatchNorm3d(32, eps=1e-05, momentum=0.1, affine=True, track_running_stats=True)
            )
            (conv2): Conv3dBN(
              (conv): Conv3d(32, 32, kernel_size=(1, 3, 3), stride=(1, 1, 1), padding=(0, 1, 1), bias=False)
              (bn): BatchNorm3d(32, eps=1e-05, momentum=0.1, affine=True, track_running_stats=True)
            )
            (conv3): Conv3dBN(
              (conv): Conv3d(32, 128, kernel_size=(1, 1, 1), stride=(1, 1, 1), bias=False)
              (bn): BatchNorm3d(128, eps=1e-05, momentum=0.1, affine=True, track_running_stats=True)
            )
            (relu): ReLU(inplace=True)
          )
          (relu): ReLU(inplace=True)
        )
        (res_15): ResBlock(
          (btnk): Bottleneck(
            (conv1): Conv3dBN(
              (conv): Conv3d(128, 32, kernel_size=(3, 1, 1), stride=(1, 1, 1), padding=(1, 0, 0), bias=False)
              (bn): BatchNorm3d(32, eps=1e-05, momentum=0.1, affine=True, track_running_stats=True)
            )
            (conv2): Conv3dBN(
              (conv): Conv3d(32, 32, kernel_size=(1, 3, 3), stride=(1, 1, 1), padding=(0, 1, 1), bias=False)
              (bn): BatchNorm3d(32, eps=1e-05, momentum=0.1, affine=True, track_running_stats=True)
            )
            (conv3): Conv3dBN(
              (conv): Conv3d(32, 128, kernel_size=(1, 1, 1), stride=(1, 1, 1), bias=False)
              (bn): BatchNorm3d(128, eps=1e-05, momentum=0.1, affine=True, track_running_stats=True)
            )
            (relu): ReLU(inplace=True)
          )
          (relu): ReLU(inplace=True)
        )
        (res_16): ResBlock(
          (btnk): Bottleneck(
            (conv1): Conv3dBN(
              (conv): Conv3d(128, 32, kernel_size=(3, 1, 1), stride=(1, 1, 1), padding=(1, 0, 0), bias=False)
              (bn): BatchNorm3d(32, eps=1e-05, momentum=0.1, affine=True, track_running_stats=True)
            )
            (conv2): Conv3dBN(
              (conv): Conv3d(32, 32, kernel_size=(1, 3, 3), stride=(1, 1, 1), padding=(0, 1, 1), bias=False)
              (bn): BatchNorm3d(32, eps=1e-05, momentum=0.1, affine=True, track_running_stats=True)
            )
            (conv3): Conv3dBN(
              (conv): Conv3d(32, 128, kernel_size=(1, 1, 1), stride=(1, 1, 1), bias=False)
              (bn): BatchNorm3d(128, eps=1e-05, momentum=0.1, affine=True, track_running_stats=True)
            )
            (relu): ReLU(inplace=True)
          )
          (relu): ReLU(inplace=True)
        )
        (res_17): ResBlock(
          (btnk): Bottleneck(
            (conv1): Conv3dBN(
              (conv): Conv3d(128, 32, kernel_size=(3, 1, 1), stride=(1, 1, 1), padding=(1, 0, 0), bias=False)
              (bn): BatchNorm3d(32, eps=1e-05, momentum=0.1, affine=True, track_running_stats=True)
            )
            (conv2): Conv3dBN(
              (conv): Conv3d(32, 32, kernel_size=(1, 3, 3), stride=(1, 1, 1), padding=(0, 1, 1), bias=False)
              (bn): BatchNorm3d(32, eps=1e-05, momentum=0.1, affine=True, track_running_stats=True)
            )
            (conv3): Conv3dBN(
              (conv): Conv3d(32, 128, kernel_size=(1, 1, 1), stride=(1, 1, 1), bias=False)
              (bn): BatchNorm3d(128, eps=1e-05, momentum=0.1, affine=True, track_running_stats=True)
            )
            (relu): ReLU(inplace=True)
          )
          (relu): ReLU(inplace=True)
        )
        (res_18): ResBlock(
          (btnk): Bottleneck(
            (conv1): Conv3dBN(
              (conv): Conv3d(128, 32, kernel_size=(3, 1, 1), stride=(1, 1, 1), padding=(1, 0, 0), bias=False)
              (bn): BatchNorm3d(32, eps=1e-05, momentum=0.1, affine=True, track_running_stats=True)
            )
            (conv2): Conv3dBN(
              (conv): Conv3d(32, 32, kernel_size=(1, 3, 3), stride=(1, 1, 1), padding=(0, 1, 1), bias=False)
              (bn): BatchNorm3d(32, eps=1e-05, momentum=0.1, affine=True, track_running_stats=True)
            )
            (conv3): Conv3dBN(
              (conv): Conv3d(32, 128, kernel_size=(1, 1, 1), stride=(1, 1, 1), bias=False)
              (bn): BatchNorm3d(128, eps=1e-05, momentum=0.1, affine=True, track_running_stats=True)
            )
            (relu): ReLU(inplace=True)
          )
          (relu): ReLU(inplace=True)
        )
        (res_19): ResBlock(
          (btnk): Bottleneck(
            (conv1): Conv3dBN(
              (conv): Conv3d(128, 32, kernel_size=(3, 1, 1), stride=(1, 1, 1), padding=(1, 0, 0), bias=False)
              (bn): BatchNorm3d(32, eps=1e-05, momentum=0.1, affine=True, track_running_stats=True)
            )
            (conv2): Conv3dBN(
              (conv): Conv3d(32, 32, kernel_size=(1, 3, 3), stride=(1, 1, 1), padding=(0, 1, 1), bias=False)
              (bn): BatchNorm3d(32, eps=1e-05, momentum=0.1, affine=True, track_running_stats=True)
            )
            (conv3): Conv3dBN(
              (conv): Conv3d(32, 128, kernel_size=(1, 1, 1), stride=(1, 1, 1), bias=False)
              (bn): BatchNorm3d(128, eps=1e-05, momentum=0.1, affine=True, track_running_stats=True)
            )
            (relu): ReLU(inplace=True)
          )
          (relu): ReLU(inplace=True)
        )
        (res_20): ResBlock(
          (btnk): Bottleneck(
            (conv1): Conv3dBN(
              (conv): Conv3d(128, 32, kernel_size=(3, 1, 1), stride=(1, 1, 1), padding=(1, 0, 0), bias=False)
              (bn): BatchNorm3d(32, eps=1e-05, momentum=0.1, affine=True, track_running_stats=True)
            )
            (conv2): Conv3dBN(
              (conv): Conv3d(32, 32, kernel_size=(1, 3, 3), stride=(1, 1, 1), padding=(0, 1, 1), bias=False)
              (bn): BatchNorm3d(32, eps=1e-05, momentum=0.1, affine=True, track_running_stats=True)
            )
            (conv3): Conv3dBN(
              (conv): Conv3d(32, 128, kernel_size=(1, 1, 1), stride=(1, 1, 1), bias=False)
              (bn): BatchNorm3d(128, eps=1e-05, momentum=0.1, affine=True, track_running_stats=True)
            )
            (relu): ReLU(inplace=True)
          )
          (relu): ReLU(inplace=True)
        )
        (res_21): ResBlock(
          (btnk): Bottleneck(
            (conv1): Conv3dBN(
              (conv): Conv3d(128, 32, kernel_size=(3, 1, 1), stride=(1, 1, 1), padding=(1, 0, 0), bias=False)
              (bn): BatchNorm3d(32, eps=1e-05, momentum=0.1, affine=True, track_running_stats=True)
            )
            (conv2): Conv3dBN(
              (conv): Conv3d(32, 32, kernel_size=(1, 3, 3), stride=(1, 1, 1), padding=(0, 1, 1), bias=False)
              (bn): BatchNorm3d(32, eps=1e-05, momentum=0.1, affine=True, track_running_stats=True)
            )
            (conv3): Conv3dBN(
              (conv): Conv3d(32, 128, kernel_size=(1, 1, 1), stride=(1, 1, 1), bias=False)
              (bn): BatchNorm3d(128, eps=1e-05, momentum=0.1, affine=True, track_running_stats=True)
            )
            (relu): ReLU(inplace=True)
          )
          (relu): ReLU(inplace=True)
        )
        (res_22): ResBlock(
          (btnk): Bottleneck(
            (conv1): Conv3dBN(
              (conv): Conv3d(128, 32, kernel_size=(3, 1, 1), stride=(1, 1, 1), padding=(1, 0, 0), bias=False)
              (bn): BatchNorm3d(32, eps=1e-05, momentum=0.1, affine=True, track_running_stats=True)
            )
            (conv2): Conv3dBN(
              (conv): Conv3d(32, 32, kernel_size=(1, 3, 3), stride=(1, 1, 1), padding=(0, 1, 1), bias=False)
              (bn): BatchNorm3d(32, eps=1e-05, momentum=0.1, affine=True, track_running_stats=True)
            )
            (conv3): Conv3dBN(
              (conv): Conv3d(32, 128, kernel_size=(1, 1, 1), stride=(1, 1, 1), bias=False)
              (bn): BatchNorm3d(128, eps=1e-05, momentum=0.1, affine=True, track_running_stats=True)
            )
            (relu): ReLU(inplace=True)
          )
          (relu): ReLU(inplace=True)
        )
      )
      (res_nl4): ResNLBlock(
        (res_0): ResBlock(
          (btnk): Bottleneck(
            (conv1): Conv3dBN(
              (conv): Conv3d(128, 64, kernel_size=(3, 1, 1), stride=(1, 1, 1), padding=(1, 0, 0), bias=False)
              (bn): BatchNorm3d(64, eps=1e-05, momentum=0.1, affine=True, track_running_stats=True)
            )
            (conv2): Conv3dBN(
              (conv): Conv3d(64, 64, kernel_size=(1, 3, 3), stride=(1, 1, 1), padding=(0, 2, 2), dilation=(1, 2, 2), bias=False)
              (bn): BatchNorm3d(64, eps=1e-05, momentum=0.1, affine=True, track_running_stats=True)
            )
            (conv3): Conv3dBN(
              (conv): Conv3d(64, 256, kernel_size=(1, 1, 1), stride=(1, 1, 1), bias=False)
              (bn): BatchNorm3d(256, eps=1e-05, momentum=0.1, affine=True, track_running_stats=True)
            )
            (relu): ReLU(inplace=True)
          )
          (shortcut): Conv3dBN(
            (conv): Conv3d(128, 256, kernel_size=(1, 1, 1), stride=(1, 1, 1), bias=False)
            (bn): BatchNorm3d(256, eps=1e-05, momentum=0.1, affine=True, track_running_stats=True)
          )
          (relu): ReLU(inplace=True)
        )
        (res_1): ResBlock(
          (btnk): Bottleneck(
            (conv1): Conv3dBN(
              (conv): Conv3d(256, 64, kernel_size=(3, 1, 1), stride=(1, 1, 1), padding=(1, 0, 0), bias=False)
              (bn): BatchNorm3d(64, eps=1e-05, momentum=0.1, affine=True, track_running_stats=True)
            )
            (conv2): Conv3dBN(
              (conv): Conv3d(64, 64, kernel_size=(1, 3, 3), stride=(1, 1, 1), padding=(0, 2, 2), dilation=(1, 2, 2), bias=False)
              (bn): BatchNorm3d(64, eps=1e-05, momentum=0.1, affine=True, track_running_stats=True)
            )
            (conv3): Conv3dBN(
              (conv): Conv3d(64, 256, kernel_size=(1, 1, 1), stride=(1, 1, 1), bias=False)
              (bn): BatchNorm3d(256, eps=1e-05, momentum=0.1, affine=True, track_running_stats=True)
            )
            (relu): ReLU(inplace=True)
          )
          (relu): ReLU(inplace=True)
        )
        (res_2): ResBlock(
          (btnk): Bottleneck(
            (conv1): Conv3dBN(
              (conv): Conv3d(256, 64, kernel_size=(3, 1, 1), stride=(1, 1, 1), padding=(1, 0, 0), bias=False)
              (bn): BatchNorm3d(64, eps=1e-05, momentum=0.1, affine=True, track_running_stats=True)
            )
            (conv2): Conv3dBN(
              (conv): Conv3d(64, 64, kernel_size=(1, 3, 3), stride=(1, 1, 1), padding=(0, 2, 2), dilation=(1, 2, 2), bias=False)
              (bn): BatchNorm3d(64, eps=1e-05, momentum=0.1, affine=True, track_running_stats=True)
            )
            (conv3): Conv3dBN(
              (conv): Conv3d(64, 256, kernel_size=(1, 1, 1), stride=(1, 1, 1), bias=False)
              (bn): BatchNorm3d(256, eps=1e-05, momentum=0.1, affine=True, track_running_stats=True)
            )
            (relu): ReLU(inplace=True)
          )
          (relu): ReLU(inplace=True)
        )
      )
      (Tconv1): LateralBlock(
        (conv): Conv3d(8, 16, kernel_size=(5, 1, 1), stride=(4, 1, 1), padding=(2, 0, 0))
      )
      (Tconv2): LateralBlock(
        (conv): Conv3d(32, 64, kernel_size=(5, 1, 1), stride=(4, 1, 1), padding=(2, 0, 0))
      )
      (Tconv3): LateralBlock(
        (conv): Conv3d(64, 128, kernel_size=(5, 1, 1), stride=(4, 1, 1), padding=(2, 0, 0))
      )
      (Tconv4): LateralBlock(
        (conv): Conv3d(128, 256, kernel_size=(5, 1, 1), stride=(4, 1, 1), padding=(2, 0, 0))
      )
    )
    (dropout): Dropout(p=0.3, inplace=False)
    (projection): Linear(in_features=2048, out_features=11, bias=True)
  )
)
[04/18 04:20:26][INFO] misc.py: 184: Params: 61,927,043
[04/18 04:20:26][INFO] misc.py: 185: Mem: 0.4631037712097168 MB
[04/18 04:20:30][WARNING] jit_analysis.py: 500: Unsupported operator aten::max_pool3d encountered 2 time(s)
[04/18 04:20:30][WARNING] jit_analysis.py: 500: Unsupported operator aten::add encountered 63 time(s)
[04/18 04:20:30][WARNING] jit_analysis.py: 500: Unsupported operator aten::mean encountered 1 time(s)
…
