…
         'ST_TYPE': 'st_skip',
         'TRANSITIONS': [True, False, False, False],
         'T_STRIDE': 1},
 'X3D': {'BN_LIN5': False,
         'BOTTLENECK_FACTOR': 1.0,
         'CHANNELWISE_3x3x3': True,
         'DEPTH_FACTOR': 1.0,
         'DIM_C1': 12,
         'DIM_C5': 2048,
         'SCALE_RES2': False,
         'WIDTH_FACTOR': 1.0}}
[04/26 02:24:00][INFO] uniformer.py: 288: Use checkpoint: True
[04/26 02:24:00][INFO] uniformer.py: 289: Checkpoint number: [0, 0, 18, 0]
[04/26 02:24:12][INFO] misc.py: 183: Model:
DistributedDataParallel(
  (module): Uniformer(
    (patch_embed1): SpeicalPatchEmbed(
      (norm): LayerNorm((64,), eps=1e-05, elementwise_affine=True)
      (proj): Conv3d(3, 64, kernel_size=(3, 4, 4), stride=(2, 4, 4), padding=(1, 0, 0))
    )
    (patch_embed2): PatchEmbed(
      (norm): LayerNorm((128,), eps=1e-05, elementwise_affine=True)
      (proj): Conv3d(64, 128, kernel_size=(1, 2, 2), stride=(1, 2, 2))
    )
    (patch_embed3): PatchEmbed(
      (norm): LayerNorm((320,), eps=1e-05, elementwise_affine=True)
      (proj): Conv3d(128, 320, kernel_size=(1, 2, 2), stride=(1, 2, 2))
    )
    (patch_embed4): PatchEmbed(
      (norm): LayerNorm((512,), eps=1e-05, elementwise_affine=True)
      (proj): Conv3d(320, 512, kernel_size=(1, 2, 2), stride=(1, 2, 2))
    )
    (pos_drop): Dropout(p=0, inplace=False)
    (blocks1): ModuleList(
      (0): CBlock(
        (pos_embed): Conv3d(64, 64, kernel_size=(3, 3, 3), stride=(1, 1, 1), padding=(1, 1, 1), groups=64)
        (norm1): BatchNorm3d(64, eps=1e-05, momentum=0.1, affine=True, track_running_stats=True)
        (conv1): Conv3d(64, 64, kernel_size=(1, 1, 1), stride=(1, 1, 1))
        (conv2): Conv3d(64, 64, kernel_size=(1, 1, 1), stride=(1, 1, 1))
        (attn): Conv3d(64, 64, kernel_size=(5, 5, 5), stride=(1, 1, 1), padding=(2, 2, 2), groups=64)
        (drop_path): Identity()
        (norm2): BatchNorm3d(64, eps=1e-05, momentum=0.1, affine=True, track_running_stats=True)
        (mlp): CMlp(
          (fc1): Conv3d(64, 256, kernel_size=(1, 1, 1), stride=(1, 1, 1))
          (act): GELU()
          (fc2): Conv3d(256, 64, kernel_size=(1, 1, 1), stride=(1, 1, 1))
          (drop): Dropout(p=0, inplace=False)
        )
      )
      (1): CBlock(
        (pos_embed): Conv3d(64, 64, kernel_size=(3, 3, 3), stride=(1, 1, 1), padding=(1, 1, 1), groups=64)
        (norm1): BatchNorm3d(64, eps=1e-05, momentum=0.1, affine=True, track_running_stats=True)
        (conv1): Conv3d(64, 64, kernel_size=(1, 1, 1), stride=(1, 1, 1))
        (conv2): Conv3d(64, 64, kernel_size=(1, 1, 1), stride=(1, 1, 1))
        (attn): Conv3d(64, 64, kernel_size=(5, 5, 5), stride=(1, 1, 1), padding=(2, 2, 2), groups=64)
        (drop_path): DropPath()
        (norm2): BatchNorm3d(64, eps=1e-05, momentum=0.1, affine=True, track_running_stats=True)
        (mlp): CMlp(
          (fc1): Conv3d(64, 256, kernel_size=(1, 1, 1), stride=(1, 1, 1))
          (act): GELU()
          (fc2): Conv3d(256, 64, kernel_size=(1, 1, 1), stride=(1, 1, 1))
          (drop): Dropout(p=0, inplace=False)
        )
      )
      (2): CBlock(
        (pos_embed): Conv3d(64, 64, kernel_size=(3, 3, 3), stride=(1, 1, 1), padding=(1, 1, 1), groups=64)
        (norm1): BatchNorm3d(64, eps=1e-05, momentum=0.1, affine=True, track_running_stats=True)
        (conv1): Conv3d(64, 64, kernel_size=(1, 1, 1), stride=(1, 1, 1))
        (conv2): Conv3d(64, 64, kernel_size=(1, 1, 1), stride=(1, 1, 1))
        (attn): Conv3d(64, 64, kernel_size=(5, 5, 5), stride=(1, 1, 1), padding=(2, 2, 2), groups=64)
        (drop_path): DropPath()
        (norm2): BatchNorm3d(64, eps=1e-05, momentum=0.1, affine=True, track_running_stats=True)
        (mlp): CMlp(
          (fc1): Conv3d(64, 256, kernel_size=(1, 1, 1), stride=(1, 1, 1))
          (act): GELU()
          (fc2): Conv3d(256, 64, kernel_size=(1, 1, 1), stride=(1, 1, 1))
          (drop): Dropout(p=0, inplace=False)
        )
      )
      (3): CBlock(
        (pos_embed): Conv3d(64, 64, kernel_size=(3, 3, 3), stride=(1, 1, 1), padding=(1, 1, 1), groups=64)
        (norm1): BatchNorm3d(64, eps=1e-05, momentum=0.1, affine=True, track_running_stats=True)
        (conv1): Conv3d(64, 64, kernel_size=(1, 1, 1), stride=(1, 1, 1))
        (conv2): Conv3d(64, 64, kernel_size=(1, 1, 1), stride=(1, 1, 1))
        (attn): Conv3d(64, 64, kernel_size=(5, 5, 5), stride=(1, 1, 1), padding=(2, 2, 2), groups=64)
        (drop_path): DropPath()
        (norm2): BatchNorm3d(64, eps=1e-05, momentum=0.1, affine=True, track_running_stats=True)
        (mlp): CMlp(
          (fc1): Conv3d(64, 256, kernel_size=(1, 1, 1), stride=(1, 1, 1))
          (act): GELU()
          (fc2): Conv3d(256, 64, kernel_size=(1, 1, 1), stride=(1, 1, 1))
          (drop): Dropout(p=0, inplace=False)
        )
      )
      (4): CBlock(
        (pos_embed): Conv3d(64, 64, kernel_size=(3, 3, 3), stride=(1, 1, 1), padding=(1, 1, 1), groups=64)
        (norm1): BatchNorm3d(64, eps=1e-05, momentum=0.1, affine=True, track_running_stats=True)
        (conv1): Conv3d(64, 64, kernel_size=(1, 1, 1), stride=(1, 1, 1))
        (conv2): Conv3d(64, 64, kernel_size=(1, 1, 1), stride=(1, 1, 1))
        (attn): Conv3d(64, 64, kernel_size=(5, 5, 5), stride=(1, 1, 1), padding=(2, 2, 2), groups=64)
        (drop_path): DropPath()
        (norm2): BatchNorm3d(64, eps=1e-05, momentum=0.1, affine=True, track_running_stats=True)
        (mlp): CMlp(
          (fc1): Conv3d(64, 256, kernel_size=(1, 1, 1), stride=(1, 1, 1))
          (act): GELU()
          (fc2): Conv3d(256, 64, kernel_size=(1, 1, 1), stride=(1, 1, 1))
          (drop): Dropout(p=0, inplace=False)
        )
      )
    )
    (blocks2): ModuleList(
      (0): CBlock(
        (pos_embed): Conv3d(128, 128, kernel_size=(3, 3, 3), stride=(1, 1, 1), padding=(1, 1, 1), groups=128)
        (norm1): BatchNorm3d(128, eps=1e-05, momentum=0.1, affine=True, track_running_stats=True)
        (conv1): Conv3d(128, 128, kernel_size=(1, 1, 1), stride=(1, 1, 1))
        (conv2): Conv3d(128, 128, kernel_size=(1, 1, 1), stride=(1, 1, 1))
        (attn): Conv3d(128, 128, kernel_size=(5, 5, 5), stride=(1, 1, 1), padding=(2, 2, 2), groups=128)
        (drop_path): DropPath()
        (norm2): BatchNorm3d(128, eps=1e-05, momentum=0.1, affine=True, track_running_stats=True)
        (mlp): CMlp(
          (fc1): Conv3d(128, 512, kernel_size=(1, 1, 1), stride=(1, 1, 1))
          (act): GELU()
          (fc2): Conv3d(512, 128, kernel_size=(1, 1, 1), stride=(1, 1, 1))
          (drop): Dropout(p=0, inplace=False)
        )
      )
      (1): CBlock(
        (pos_embed): Conv3d(128, 128, kernel_size=(3, 3, 3), stride=(1, 1, 1), padding=(1, 1, 1), groups=128)
        (norm1): BatchNorm3d(128, eps=1e-05, momentum=0.1, affine=True, track_running_stats=True)
        (conv1): Conv3d(128, 128, kernel_size=(1, 1, 1), stride=(1, 1, 1))
        (conv2): Conv3d(128, 128, kernel_size=(1, 1, 1), stride=(1, 1, 1))
        (attn): Conv3d(128, 128, kernel_size=(5, 5, 5), stride=(1, 1, 1), padding=(2, 2, 2), groups=128)
        (drop_path): DropPath()
        (norm2): BatchNorm3d(128, eps=1e-05, momentum=0.1, affine=True, track_running_stats=True)
        (mlp): CMlp(
          (fc1): Conv3d(128, 512, kernel_size=(1, 1, 1), stride=(1, 1, 1))
          (act): GELU()
          (fc2): Conv3d(512, 128, kernel_size=(1, 1, 1), stride=(1, 1, 1))
          (drop): Dropout(p=0, inplace=False)
        )
      )
      (2): CBlock(
        (pos_embed): Conv3d(128, 128, kernel_size=(3, 3, 3), stride=(1, 1, 1), padding=(1, 1, 1), groups=128)
        (norm1): BatchNorm3d(128, eps=1e-05, momentum=0.1, affine=True, track_running_stats=True)
        (conv1): Conv3d(128, 128, kernel_size=(1, 1, 1), stride=(1, 1, 1))
        (conv2): Conv3d(128, 128, kernel_size=(1, 1, 1), stride=(1, 1, 1))
        (attn): Conv3d(128, 128, kernel_size=(5, 5, 5), stride=(1, 1, 1), padding=(2, 2, 2), groups=128)
        (drop_path): DropPath()
        (norm2): BatchNorm3d(128, eps=1e-05, momentum=0.1, affine=True, track_running_stats=True)
        (mlp): CMlp(
          (fc1): Conv3d(128, 512, kernel_size=(1, 1, 1), stride=(1, 1, 1))
          (act): GELU()
          (fc2): Conv3d(512, 128, kernel_size=(1, 1, 1), stride=(1, 1, 1))
          (drop): Dropout(p=0, inplace=False)
        )
      )
      (3): CBlock(
        (pos_embed): Conv3d(128, 128, kernel_size=(3, 3, 3), stride=(1, 1, 1), padding=(1, 1, 1), groups=128)
        (norm1): BatchNorm3d(128, eps=1e-05, momentum=0.1, affine=True, track_running_stats=True)
        (conv1): Conv3d(128, 128, kernel_size=(1, 1, 1), stride=(1, 1, 1))
        (conv2): Conv3d(128, 128, kernel_size=(1, 1, 1), stride=(1, 1, 1))
        (attn): Conv3d(128, 128, kernel_size=(5, 5, 5), stride=(1, 1, 1), padding=(2, 2, 2), groups=128)
        (drop_path): DropPath()
        (norm2): BatchNorm3d(128, eps=1e-05, momentum=0.1, affine=True, track_running_stats=True)
        (mlp): CMlp(
          (fc1): Conv3d(128, 512, kernel_size=(1, 1, 1), stride=(1, 1, 1))
          (act): GELU()
          (fc2): Conv3d(512, 128, kernel_size=(1, 1, 1), stride=(1, 1, 1))
          (drop): Dropout(p=0, inplace=False)
        )
      )
      (4): CBlock(
        (pos_embed): Conv3d(128, 128, kernel_size=(3, 3, 3), stride=(1, 1, 1), padding=(1, 1, 1), groups=128)
        (norm1): BatchNorm3d(128, eps=1e-05, momentum=0.1, affine=True, track_running_stats=True)
        (conv1): Conv3d(128, 128, kernel_size=(1, 1, 1), stride=(1, 1, 1))
        (conv2): Conv3d(128, 128, kernel_size=(1, 1, 1), stride=(1, 1, 1))
        (attn): Conv3d(128, 128, kernel_size=(5, 5, 5), stride=(1, 1, 1), padding=(2, 2, 2), groups=128)
        (drop_path): DropPath()
        (norm2): BatchNorm3d(128, eps=1e-05, momentum=0.1, affine=True, track_running_stats=True)
        (mlp): CMlp(
          (fc1): Conv3d(128, 512, kernel_size=(1, 1, 1), stride=(1, 1, 1))
          (act): GELU()
          (fc2): Conv3d(512, 128, kernel_size=(1, 1, 1), stride=(1, 1, 1))
          (drop): Dropout(p=0, inplace=False)
        )
      )
      (5): CBlock(
        (pos_embed): Conv3d(128, 128, kernel_size=(3, 3, 3), stride=(1, 1, 1), padding=(1, 1, 1), groups=128)
        (norm1): BatchNorm3d(128, eps=1e-05, momentum=0.1, affine=True, track_running_stats=True)
        (conv1): Conv3d(128, 128, kernel_size=(1, 1, 1), stride=(1, 1, 1))
        (conv2): Conv3d(128, 128, kernel_size=(1, 1, 1), stride=(1, 1, 1))
        (attn): Conv3d(128, 128, kernel_size=(5, 5, 5), stride=(1, 1, 1), padding=(2, 2, 2), groups=128)
        (drop_path): DropPath()
        (norm2): BatchNorm3d(128, eps=1e-05, momentum=0.1, affine=True, track_running_stats=True)
        (mlp): CMlp(
          (fc1): Conv3d(128, 512, kernel_size=(1, 1, 1), stride=(1, 1, 1))
          (act): GELU()
          (fc2): Conv3d(512, 128, kernel_size=(1, 1, 1), stride=(1, 1, 1))
          (drop): Dropout(p=0, inplace=False)
        )
      )
      (6): CBlock(
        (pos_embed): Conv3d(128, 128, kernel_size=(3, 3, 3), stride=(1, 1, 1), padding=(1, 1, 1), groups=128)
        (norm1): BatchNorm3d(128, eps=1e-05, momentum=0.1, affine=True, track_running_stats=True)
        (conv1): Conv3d(128, 128, kernel_size=(1, 1, 1), stride=(1, 1, 1))
        (conv2): Conv3d(128, 128, kernel_size=(1, 1, 1), stride=(1, 1, 1))
        (attn): Conv3d(128, 128, kernel_size=(5, 5, 5), stride=(1, 1, 1), padding=(2, 2, 2), groups=128)
        (drop_path): DropPath()
        (norm2): BatchNorm3d(128, eps=1e-05, momentum=0.1, affine=True, track_running_stats=True)
        (mlp): CMlp(
          (fc1): Conv3d(128, 512, kernel_size=(1, 1, 1), stride=(1, 1, 1))
          (act): GELU()
          (fc2): Conv3d(512, 128, kernel_size=(1, 1, 1), stride=(1, 1, 1))
          (drop): Dropout(p=0, inplace=False)
        )
      )
      (7): CBlock(
        (pos_embed): Conv3d(128, 128, kernel_size=(3, 3, 3), stride=(1, 1, 1), padding=(1, 1, 1), groups=128)
        (norm1): BatchNorm3d(128, eps=1e-05, momentum=0.1, affine=True, track_running_stats=True)
        (conv1): Conv3d(128, 128, kernel_size=(1, 1, 1), stride=(1, 1, 1))
        (conv2): Conv3d(128, 128, kernel_size=(1, 1, 1), stride=(1, 1, 1))
        (attn): Conv3d(128, 128, kernel_size=(5, 5, 5), stride=(1, 1, 1), padding=(2, 2, 2), groups=128)
        (drop_path): DropPath()
        (norm2): BatchNorm3d(128, eps=1e-05, momentum=0.1, affine=True, track_running_stats=True)
        (mlp): CMlp(
          (fc1): Conv3d(128, 512, kernel_size=(1, 1, 1), stride=(1, 1, 1))
          (act): GELU()
          (fc2): Conv3d(512, 128, kernel_size=(1, 1, 1), stride=(1, 1, 1))
          (drop): Dropout(p=0, inplace=False)
        )
      )
    )
    (blocks3): ModuleList(
      (0): SABlock(
        (pos_embed): Conv3d(320, 320, kernel_size=(3, 3, 3), stride=(1, 1, 1), padding=(1, 1, 1), groups=320)
        (norm1): LayerNorm((320,), eps=1e-06, elementwise_affine=True)
        (attn): Attention(
          (qkv): Linear(in_features=320, out_features=960, bias=True)
          (attn_drop): Dropout(p=0, inplace=False)
          (proj): Linear(in_features=320, out_features=320, bias=True)
          (proj_drop): Dropout(p=0, inplace=False)
        )
        (drop_path): DropPath()
        (norm2): LayerNorm((320,), eps=1e-06, elementwise_affine=True)
        (mlp): Mlp(
          (fc1): Linear(in_features=320, out_features=1280, bias=True)
          (act): GELU()
          (fc2): Linear(in_features=1280, out_features=320, bias=True)
          (drop): Dropout(p=0, inplace=False)
        )
      )
      (1): SABlock(
        (pos_embed): Conv3d(320, 320, kernel_size=(3, 3, 3), stride=(1, 1, 1), padding=(1, 1, 1), groups=320)
        (norm1): LayerNorm((320,), eps=1e-06, elementwise_affine=True)
        (attn): Attention(
          (qkv): Linear(in_features=320, out_features=960, bias=True)
          (attn_drop): Dropout(p=0, inplace=False)
          (proj): Linear(in_features=320, out_features=320, bias=True)
          (proj_drop): Dropout(p=0, inplace=False)
        )
        (drop_path): DropPath()
        (norm2): LayerNorm((320,), eps=1e-06, elementwise_affine=True)
        (mlp): Mlp(
          (fc1): Linear(in_features=320, out_features=1280, bias=True)
          (act): GELU()
          (fc2): Linear(in_features=1280, out_features=320, bias=True)
          (drop): Dropout(p=0, inplace=False)
        )
      )
      (2): SABlock(
        (pos_embed): Conv3d(320, 320, kernel_size=(3, 3, 3), stride=(1, 1, 1), padding=(1, 1, 1), groups=320)
        (norm1): LayerNorm((320,), eps=1e-06, elementwise_affine=True)
        (attn): Attention(
          (qkv): Linear(in_features=320, out_features=960, bias=True)
          (attn_drop): Dropout(p=0, inplace=False)
          (proj): Linear(in_features=320, out_features=320, bias=True)
          (proj_drop): Dropout(p=0, inplace=False)
        )
        (drop_path): DropPath()
        (norm2): LayerNorm((320,), eps=1e-06, elementwise_affine=True)
        (mlp): Mlp(
          (fc1): Linear(in_features=320, out_features=1280, bias=True)
          (act): GELU()
          (fc2): Linear(in_features=1280, out_features=320, bias=True)
          (drop): Dropout(p=0, inplace=False)
        )
      )
      (3): SABlock(
        (pos_embed): Conv3d(320, 320, kernel_size=(3, 3, 3), stride=(1, 1, 1), padding=(1, 1, 1), groups=320)
        (norm1): LayerNorm((320,), eps=1e-06, elementwise_affine=True)
        (attn): Attention(
          (qkv): Linear(in_features=320, out_features=960, bias=True)
          (attn_drop): Dropout(p=0, inplace=False)
          (proj): Linear(in_features=320, out_features=320, bias=True)
          (proj_drop): Dropout(p=0, inplace=False)
        )
        (drop_path): DropPath()
        (norm2): LayerNorm((320,), eps=1e-06, elementwise_affine=True)
        (mlp): Mlp(
          (fc1): Linear(in_features=320, out_features=1280, bias=True)
          (act): GELU()
          (fc2): Linear(in_features=1280, out_features=320, bias=True)
          (drop): Dropout(p=0, inplace=False)
        )
      )
      (4): SABlock(
        (pos_embed): Conv3d(320, 320, kernel_size=(3, 3, 3), stride=(1, 1, 1), padding=(1, 1, 1), groups=320)
        (norm1): LayerNorm((320,), eps=1e-06, elementwise_affine=True)
        (attn): Attention(
          (qkv): Linear(in_features=320, out_features=960, bias=True)
          (attn_drop): Dropout(p=0, inplace=False)
          (proj): Linear(in_features=320, out_features=320, bias=True)
          (proj_drop): Dropout(p=0, inplace=False)
        )
        (drop_path): DropPath()
        (norm2): LayerNorm((320,), eps=1e-06, elementwise_affine=True)
        (mlp): Mlp(
          (fc1): Linear(in_features=320, out_features=1280, bias=True)
          (act): GELU()
          (fc2): Linear(in_features=1280, out_features=320, bias=True)
          (drop): Dropout(p=0, inplace=False)
        )
      )
      (5): SABlock(
        (pos_embed): Conv3d(320, 320, kernel_size=(3, 3, 3), stride=(1, 1, 1), padding=(1, 1, 1), groups=320)
        (norm1): LayerNorm((320,), eps=1e-06, elementwise_affine=True)
        (attn): Attention(
          (qkv): Linear(in_features=320, out_features=960, bias=True)
          (attn_drop): Dropout(p=0, inplace=False)
          (proj): Linear(in_features=320, out_features=320, bias=True)
          (proj_drop): Dropout(p=0, inplace=False)
        )
        (drop_path): DropPath()
        (norm2): LayerNorm((320,), eps=1e-06, elementwise_affine=True)
        (mlp): Mlp(
          (fc1): Linear(in_features=320, out_features=1280, bias=True)
          (act): GELU()
          (fc2): Linear(in_features=1280, out_features=320, bias=True)
          (drop): Dropout(p=0, inplace=False)
        )
      )
      (6): SABlock(
        (pos_embed): Conv3d(320, 320, kernel_size=(3, 3, 3), stride=(1, 1, 1), padding=(1, 1, 1), groups=320)
        (norm1): LayerNorm((320,), eps=1e-06, elementwise_affine=True)
        (attn): Attention(
          (qkv): Linear(in_features=320, out_features=960, bias=True)
          (attn_drop): Dropout(p=0, inplace=False)
          (proj): Linear(in_features=320, out_features=320, bias=True)
          (proj_drop): Dropout(p=0, inplace=False)
        )
        (drop_path): DropPath()
        (norm2): LayerNorm((320,), eps=1e-06, elementwise_affine=True)
        (mlp): Mlp(
          (fc1): Linear(in_features=320, out_features=1280, bias=True)
          (act): GELU()
          (fc2): Linear(in_features=1280, out_features=320, bias=True)
          (drop): Dropout(p=0, inplace=False)
        )
      )
      (7): SABlock(
        (pos_embed): Conv3d(320, 320, kernel_size=(3, 3, 3), stride=(1, 1, 1), padding=(1, 1, 1), groups=320)
        (norm1): LayerNorm((320,), eps=1e-06, elementwise_affine=True)
        (attn): Attention(
          (qkv): Linear(in_features=320, out_features=960, bias=True)
          (attn_drop): Dropout(p=0, inplace=False)
          (proj): Linear(in_features=320, out_features=320, bias=True)
          (proj_drop): Dropout(p=0, inplace=False)
        )
        (drop_path): DropPath()
        (norm2): LayerNorm((320,), eps=1e-06, elementwise_affine=True)
        (mlp): Mlp(
          (fc1): Linear(in_features=320, out_features=1280, bias=True)
          (act): GELU()
          (fc2): Linear(in_features=1280, out_features=320, bias=True)
          (drop): Dropout(p=0, inplace=False)
        )
      )
      (8): SABlock(
        (pos_embed): Conv3d(320, 320, kernel_size=(3, 3, 3), stride=(1, 1, 1), padding=(1, 1, 1), groups=320)
        (norm1): LayerNorm((320,), eps=1e-06, elementwise_affine=True)
        (attn): Attention(
          (qkv): Linear(in_features=320, out_features=960, bias=True)
          (attn_drop): Dropout(p=0, inplace=False)
          (proj): Linear(in_features=320, out_features=320, bias=True)
          (proj_drop): Dropout(p=0, inplace=False)
        )
        (drop_path): DropPath()
        (norm2): LayerNorm((320,), eps=1e-06, elementwise_affine=True)
        (mlp): Mlp(
          (fc1): Linear(in_features=320, out_features=1280, bias=True)
          (act): GELU()
          (fc2): Linear(in_features=1280, out_features=320, bias=True)
          (drop): Dropout(p=0, inplace=False)
        )
      )
      (9): SABlock(
        (pos_embed): Conv3d(320, 320, kernel_size=(3, 3, 3), stride=(1, 1, 1), padding=(1, 1, 1), groups=320)
        (norm1): LayerNorm((320,), eps=1e-06, elementwise_affine=True)
        (attn): Attention(
          (qkv): Linear(in_features=320, out_features=960, bias=True)
          (attn_drop): Dropout(p=0, inplace=False)
          (proj): Linear(in_features=320, out_features=320, bias=True)
          (proj_drop): Dropout(p=0, inplace=False)
        )
        (drop_path): DropPath()
        (norm2): LayerNorm((320,), eps=1e-06, elementwise_affine=True)
        (mlp): Mlp(
          (fc1): Linear(in_features=320, out_features=1280, bias=True)
          (act): GELU()
          (fc2): Linear(in_features=1280, out_features=320, bias=True)
          (drop): Dropout(p=0, inplace=False)
        )
      )
      (10): SABlock(
        (pos_embed): Conv3d(320, 320, kernel_size=(3, 3, 3), stride=(1, 1, 1), padding=(1, 1, 1), groups=320)
        (norm1): LayerNorm((320,), eps=1e-06, elementwise_affine=True)
        (attn): Attention(
          (qkv): Linear(in_features=320, out_features=960, bias=True)
          (attn_drop): Dropout(p=0, inplace=False)
          (proj): Linear(in_features=320, out_features=320, bias=True)
          (proj_drop): Dropout(p=0, inplace=False)
        )
        (drop_path): DropPath()
        (norm2): LayerNorm((320,), eps=1e-06, elementwise_affine=True)
        (mlp): Mlp(
          (fc1): Linear(in_features=320, out_features=1280, bias=True)
          (act): GELU()
          (fc2): Linear(in_features=1280, out_features=320, bias=True)
          (drop): Dropout(p=0, inplace=False)
        )
      )
      (11): SABlock(
        (pos_embed): Conv3d(320, 320, kernel_size=(3, 3, 3), stride=(1, 1, 1), padding=(1, 1, 1), groups=320)
        (norm1): LayerNorm((320,), eps=1e-06, elementwise_affine=True)
        (attn): Attention(
          (qkv): Linear(in_features=320, out_features=960, bias=True)
          (attn_drop): Dropout(p=0, inplace=False)
          (proj): Linear(in_features=320, out_features=320, bias=True)
          (proj_drop): Dropout(p=0, inplace=False)
        )
        (drop_path): DropPath()
        (norm2): LayerNorm((320,), eps=1e-06, elementwise_affine=True)
        (mlp): Mlp(
          (fc1): Linear(in_features=320, out_features=1280, bias=True)
          (act): GELU()
          (fc2): Linear(in_features=1280, out_features=320, bias=True)
          (drop): Dropout(p=0, inplace=False)
        )
      )
      (12): SABlock(
        (pos_embed): Conv3d(320, 320, kernel_size=(3, 3, 3), stride=(1, 1, 1), padding=(1, 1, 1), groups=320)
        (norm1): LayerNorm((320,), eps=1e-06, elementwise_affine=True)
        (attn): Attention(
          (qkv): Linear(in_features=320, out_features=960, bias=True)
          (attn_drop): Dropout(p=0, inplace=False)
          (proj): Linear(in_features=320, out_features=320, bias=True)
          (proj_drop): Dropout(p=0, inplace=False)
        )
        (drop_path): DropPath()
        (norm2): LayerNorm((320,), eps=1e-06, elementwise_affine=True)
        (mlp): Mlp(
          (fc1): Linear(in_features=320, out_features=1280, bias=True)
          (act): GELU()
          (fc2): Linear(in_features=1280, out_features=320, bias=True)
          (drop): Dropout(p=0, inplace=False)
        )
      )
      (13): SABlock(
        (pos_embed): Conv3d(320, 320, kernel_size=(3, 3, 3), stride=(1, 1, 1), padding=(1, 1, 1), groups=320)
        (norm1): LayerNorm((320,), eps=1e-06, elementwise_affine=True)
        (attn): Attention(
          (qkv): Linear(in_features=320, out_features=960, bias=True)
          (attn_drop): Dropout(p=0, inplace=False)
          (proj): Linear(in_features=320, out_features=320, bias=True)
          (proj_drop): Dropout(p=0, inplace=False)
        )
        (drop_path): DropPath()
        (norm2): LayerNorm((320,), eps=1e-06, elementwise_affine=True)
        (mlp): Mlp(
          (fc1): Linear(in_features=320, out_features=1280, bias=True)
          (act): GELU()
          (fc2): Linear(in_features=1280, out_features=320, bias=True)
          (drop): Dropout(p=0, inplace=False)
        )
      )
      (14): SABlock(
        (pos_embed): Conv3d(320, 320, kernel_size=(3, 3, 3), stride=(1, 1, 1), padding=(1, 1, 1), groups=320)
        (norm1): LayerNorm((320,), eps=1e-06, elementwise_affine=True)
        (attn): Attention(
          (qkv): Linear(in_features=320, out_features=960, bias=True)
          (attn_drop): Dropout(p=0, inplace=False)
          (proj): Linear(in_features=320, out_features=320, bias=True)
          (proj_drop): Dropout(p=0, inplace=False)
        )
        (drop_path): DropPath()
        (norm2): LayerNorm((320,), eps=1e-06, elementwise_affine=True)
        (mlp): Mlp(
          (fc1): Linear(in_features=320, out_features=1280, bias=True)
          (act): GELU()
          (fc2): Linear(in_features=1280, out_features=320, bias=True)
          (drop): Dropout(p=0, inplace=False)
        )
      )
      (15): SABlock(
        (pos_embed): Conv3d(320, 320, kernel_size=(3, 3, 3), stride=(1, 1, 1), padding=(1, 1, 1), groups=320)
        (norm1): LayerNorm((320,), eps=1e-06, elementwise_affine=True)
        (attn): Attention(
          (qkv): Linear(in_features=320, out_features=960, bias=True)
          (attn_drop): Dropout(p=0, inplace=False)
          (proj): Linear(in_features=320, out_features=320, bias=True)
          (proj_drop): Dropout(p=0, inplace=False)
        )
        (drop_path): DropPath()
        (norm2): LayerNorm((320,), eps=1e-06, elementwise_affine=True)
        (mlp): Mlp(
          (fc1): Linear(in_features=320, out_features=1280, bias=True)
          (act): GELU()
          (fc2): Linear(in_features=1280, out_features=320, bias=True)
          (drop): Dropout(p=0, inplace=False)
        )
      )
      (16): SABlock(
        (pos_embed): Conv3d(320, 320, kernel_size=(3, 3, 3), stride=(1, 1, 1), padding=(1, 1, 1), groups=320)
        (norm1): LayerNorm((320,), eps=1e-06, elementwise_affine=True)
        (attn): Attention(
          (qkv): Linear(in_features=320, out_features=960, bias=True)
          (attn_drop): Dropout(p=0, inplace=False)
          (proj): Linear(in_features=320, out_features=320, bias=True)
          (proj_drop): Dropout(p=0, inplace=False)
        )
        (drop_path): DropPath()
        (norm2): LayerNorm((320,), eps=1e-06, elementwise_affine=True)
        (mlp): Mlp(
          (fc1): Linear(in_features=320, out_features=1280, bias=True)
          (act): GELU()
          (fc2): Linear(in_features=1280, out_features=320, bias=True)
          (drop): Dropout(p=0, inplace=False)
        )
      )
      (17): SABlock(
        (pos_embed): Conv3d(320, 320, kernel_size=(3, 3, 3), stride=(1, 1, 1), padding=(1, 1, 1), groups=320)
        (norm1): LayerNorm((320,), eps=1e-06, elementwise_affine=True)
        (attn): Attention(
          (qkv): Linear(in_features=320, out_features=960, bias=True)
          (attn_drop): Dropout(p=0, inplace=False)
          (proj): Linear(in_features=320, out_features=320, bias=True)
          (proj_drop): Dropout(p=0, inplace=False)
        )
        (drop_path): DropPath()
        (norm2): LayerNorm((320,), eps=1e-06, elementwise_affine=True)
        (mlp): Mlp(
          (fc1): Linear(in_features=320, out_features=1280, bias=True)
          (act): GELU()
          (fc2): Linear(in_features=1280, out_features=320, bias=True)
          (drop): Dropout(p=0, inplace=False)
        )
      )
      (18): SABlock(
        (pos_embed): Conv3d(320, 320, kernel_size=(3, 3, 3), stride=(1, 1, 1), padding=(1, 1, 1), groups=320)
        (norm1): LayerNorm((320,), eps=1e-06, elementwise_affine=True)
        (attn): Attention(
          (qkv): Linear(in_features=320, out_features=960, bias=True)
          (attn_drop): Dropout(p=0, inplace=False)
          (proj): Linear(in_features=320, out_features=320, bias=True)
          (proj_drop): Dropout(p=0, inplace=False)
        )
        (drop_path): DropPath()
        (norm2): LayerNorm((320,), eps=1e-06, elementwise_affine=True)
        (mlp): Mlp(
          (fc1): Linear(in_features=320, out_features=1280, bias=True)
          (act): GELU()
          (fc2): Linear(in_features=1280, out_features=320, bias=True)
          (drop): Dropout(p=0, inplace=False)
        )
      )
      (19): SABlock(
        (pos_embed): Conv3d(320, 320, kernel_size=(3, 3, 3), stride=(1, 1, 1), padding=(1, 1, 1), groups=320)
        (norm1): LayerNorm((320,), eps=1e-06, elementwise_affine=True)
        (attn): Attention(
          (qkv): Linear(in_features=320, out_features=960, bias=True)
          (attn_drop): Dropout(p=0, inplace=False)
          (proj): Linear(in_features=320, out_features=320, bias=True)
          (proj_drop): Dropout(p=0, inplace=False)
        )
        (drop_path): DropPath()
        (norm2): LayerNorm((320,), eps=1e-06, elementwise_affine=True)
        (mlp): Mlp(
          (fc1): Linear(in_features=320, out_features=1280, bias=True)
          (act): GELU()
          (fc2): Linear(in_features=1280, out_features=320, bias=True)
          (drop): Dropout(p=0, inplace=False)
        )
      )
    )
    (blocks4): ModuleList(
      (0): SABlock(
        (pos_embed): Conv3d(512, 512, kernel_size=(3, 3, 3), stride=(1, 1, 1), padding=(1, 1, 1), groups=512)
        (norm1): LayerNorm((512,), eps=1e-06, elementwise_affine=True)
        (attn): Attention(
          (qkv): Linear(in_features=512, out_features=1536, bias=True)
          (attn_drop): Dropout(p=0, inplace=False)
          (proj): Linear(in_features=512, out_features=512, bias=True)
          (proj_drop): Dropout(p=0, inplace=False)
        )
        (drop_path): DropPath()
        (norm2): LayerNorm((512,), eps=1e-06, elementwise_affine=True)
        (mlp): Mlp(
          (fc1): Linear(in_features=512, out_features=2048, bias=True)
          (act): GELU()
          (fc2): Linear(in_features=2048, out_features=512, bias=True)
          (drop): Dropout(p=0, inplace=False)
        )
      )
      (1): SABlock(
        (pos_embed): Conv3d(512, 512, kernel_size=(3, 3, 3), stride=(1, 1, 1), padding=(1, 1, 1), groups=512)
        (norm1): LayerNorm((512,), eps=1e-06, elementwise_affine=True)
        (attn): Attention(
          (qkv): Linear(in_features=512, out_features=1536, bias=True)
          (attn_drop): Dropout(p=0, inplace=False)
          (proj): Linear(in_features=512, out_features=512, bias=True)
          (proj_drop): Dropout(p=0, inplace=False)
        )
        (drop_path): DropPath()
        (norm2): LayerNorm((512,), eps=1e-06, elementwise_affine=True)
        (mlp): Mlp(
          (fc1): Linear(in_features=512, out_features=2048, bias=True)
          (act): GELU()
          (fc2): Linear(in_features=2048, out_features=512, bias=True)
          (drop): Dropout(p=0, inplace=False)
        )
      )
      (2): SABlock(
        (pos_embed): Conv3d(512, 512, kernel_size=(3, 3, 3), stride=(1, 1, 1), padding=(1, 1, 1), groups=512)
        (norm1): LayerNorm((512,), eps=1e-06, elementwise_affine=True)
        (attn): Attention(
          (qkv): Linear(in_features=512, out_features=1536, bias=True)
          (attn_drop): Dropout(p=0, inplace=False)
          (proj): Linear(in_features=512, out_features=512, bias=True)
          (proj_drop): Dropout(p=0, inplace=False)
        )
        (drop_path): DropPath()
        (norm2): LayerNorm((512,), eps=1e-06, elementwise_affine=True)
        (mlp): Mlp(
          (fc1): Linear(in_features=512, out_features=2048, bias=True)
          (act): GELU()
          (fc2): Linear(in_features=2048, out_features=512, bias=True)
          (drop): Dropout(p=0, inplace=False)
        )
      )
      (3): SABlock(
        (pos_embed): Conv3d(512, 512, kernel_size=(3, 3, 3), stride=(1, 1, 1), padding=(1, 1, 1), groups=512)
        (norm1): LayerNorm((512,), eps=1e-06, elementwise_affine=True)
        (attn): Attention(
          (qkv): Linear(in_features=512, out_features=1536, bias=True)
          (attn_drop): Dropout(p=0, inplace=False)
          (proj): Linear(in_features=512, out_features=512, bias=True)
          (proj_drop): Dropout(p=0, inplace=False)
        )
        (drop_path): DropPath()
        (norm2): LayerNorm((512,), eps=1e-06, elementwise_affine=True)
        (mlp): Mlp(
          (fc1): Linear(in_features=512, out_features=2048, bias=True)
          (act): GELU()
          (fc2): Linear(in_features=2048, out_features=512, bias=True)
          (drop): Dropout(p=0, inplace=False)
        )
      )
      (4): SABlock(
        (pos_embed): Conv3d(512, 512, kernel_size=(3, 3, 3), stride=(1, 1, 1), padding=(1, 1, 1), groups=512)
        (norm1): LayerNorm((512,), eps=1e-06, elementwise_affine=True)
        (attn): Attention(
          (qkv): Linear(in_features=512, out_features=1536, bias=True)
          (attn_drop): Dropout(p=0, inplace=False)
          (proj): Linear(in_features=512, out_features=512, bias=True)
          (proj_drop): Dropout(p=0, inplace=False)
        )
        (drop_path): DropPath()
        (norm2): LayerNorm((512,), eps=1e-06, elementwise_affine=True)
        (mlp): Mlp(
          (fc1): Linear(in_features=512, out_features=2048, bias=True)
          (act): GELU()
          (fc2): Linear(in_features=2048, out_features=512, bias=True)
          (drop): Dropout(p=0, inplace=False)
        )
      )
      (5): SABlock(
        (pos_embed): Conv3d(512, 512, kernel_size=(3, 3, 3), stride=(1, 1, 1), padding=(1, 1, 1), groups=512)
        (norm1): LayerNorm((512,), eps=1e-06, elementwise_affine=True)
        (attn): Attention(
          (qkv): Linear(in_features=512, out_features=1536, bias=True)
          (attn_drop): Dropout(p=0, inplace=False)
          (proj): Linear(in_features=512, out_features=512, bias=True)
          (proj_drop): Dropout(p=0, inplace=False)
        )
        (drop_path): DropPath()
        (norm2): LayerNorm((512,), eps=1e-06, elementwise_affine=True)
        (mlp): Mlp(
          (fc1): Linear(in_features=512, out_features=2048, bias=True)
          (act): GELU()
          (fc2): Linear(in_features=2048, out_features=512, bias=True)
          (drop): Dropout(p=0, inplace=False)
        )
      )
      (6): SABlock(
        (pos_embed): Conv3d(512, 512, kernel_size=(3, 3, 3), stride=(1, 1, 1), padding=(1, 1, 1), groups=512)
        (norm1): LayerNorm((512,), eps=1e-06, elementwise_affine=True)
        (attn): Attention(
          (qkv): Linear(in_features=512, out_features=1536, bias=True)
          (attn_drop): Dropout(p=0, inplace=False)
          (proj): Linear(in_features=512, out_features=512, bias=True)
          (proj_drop): Dropout(p=0, inplace=False)
        )
        (drop_path): DropPath()
        (norm2): LayerNorm((512,), eps=1e-06, elementwise_affine=True)
        (mlp): Mlp(
          (fc1): Linear(in_features=512, out_features=2048, bias=True)
          (act): GELU()
          (fc2): Linear(in_features=2048, out_features=512, bias=True)
          (drop): Dropout(p=0, inplace=False)
        )
      )
    )
    (norm): BatchNorm3d(512, eps=1e-05, momentum=0.1, affine=True, track_running_stats=True)
    (pre_logits): Identity()
    (head): Linear(in_features=512, out_features=11, bias=True)
  )
)
[04/26 02:24:12][INFO] misc.py: 184: Params: 49,613,643
[04/26 02:24:12][INFO] misc.py: 185: Mem: 0.3719978332519531 MB
[04/26 02:24:17][WARNING] jit_analysis.py: 500: Unsupported operator aten::add encountered 66 time(s)
[04/26 02:24:17][WARNING] jit_analysis.py: 500: Unsupported operator aten::gelu encountered 22 time(s)
[04/26 02:24:17][WARNING] jit_analysis.py: 500: Unsupported operator prim::PythonOp.CheckpointFunction encountered 18 time(s)
…
